neuralNetwork/dl.pth (torch, 6543 bytes, 7 tensors)

conv1.0.weight f4 [16, 11]
0.28489387 -0.13765551 -0.072587624 -0.29194188 0.04165685 0.09750095 -0.14455074 -0.2689444
-0.16742493 -0.054067835 -0.18239039 -3.076998 -0.18156151 -1.8260369 0.7459285 -0.3731003
0.5411176 0.3176729 -2.6219168 0.45427325 -0.027347961 2.5270464 -3.6102226 -0.0552337
0.1851727 0.26836094 -0.063571975 0.03082159 -0.19143362 -2.1669714 0.79207766 -0.04005107
2.529098 0.96632206 0.44842857 1.6157479 0.3708716 0.3331291 -0.48852268 0.6155933
-0.90690005 -0.4016015 0.045981616 0.83264333 -0.017787289 0.34128112 2.0096347 0.26915687
0.46286047 -0.2915651 0.44811392 -0.65234286 0.06957754 0.26631165 0.089721 -2.2547307
0.41593337 2.0977433 -0.6702947 0.27396297 -0.5846622 -1.4239631 -1.9951551 0.8446174
-0.013942291 2.5351572 -0.42537314 0.3642845 1.3246317 0.30929574 0.25343916 0.5640777
-0.593709 -1.1977899 0.08790491 0.12533894 0.9470354 -0.41165406 0.80266017 1.9820182
0.7035398 0.44741932 -0.2461279 0.40488046 -1.2327292 -0.40951028 -0.036675755 0.703856
-0.067191385 0.85770273 2.1537094 -0.23224285 -0.026693618 -0.46690667 0.59542096 -1.5639216
-0.33933383 0.010270754 1.0493203 -2.5492268 0.8312035 0.58767605 -0.13748273 -0.071239755
0.12440842 0.34777313 -2.3332958 0.21711804 -0.024557194 2.2648606 0.44163606 0.60269403
1.9256301 0.4661882 0.12101292 -0.13783717 0.09338801 -0.74459136 -0.08640867 0.12077382
0.33089933 0.7125255 0.35590363 1.1574146 0.5493692 0.1316162 -0.58581644 0.49998647
-0.3577017 -0.65421426 0.013208237 0.40672064 -3.037681 -0.016897388 0.59494686 0.05056596
-0.0039597224 -0.41853917 -0.6343368 -2.8129787 0.65777045 -0.00900955 2.689801 -0.016120195
-0.11295709 0.1628826 0.18056166 -0.2817316 -0.15391272 0.22185922 -0.19496489 0.29100376
-0.16458488 0.030762315 -0.19253139 0.9977888 -1.1113191 0.6614685 0.39338818 0.7972872
-0.35729986 0.2613057 0.04245104 0.25827172 0.23346871 0.32530668 0.18736829 2.8675163
0.3001983 0.628768 0.061096333 -0.011724007 -1.0906988 0.19221465 0.25039414 0.44372746
00000000: 9cdd 913e 91f5 0cbe d2a8 94bd 6879 95be
00000010: 60a0 2a3d 94ae c73d 1c05 14be 15b3 89be
00000020: 7171 2bbe 3c76 5dbd 8cc4 3abe 89ed 44c0
00000030: 43eb 39be 94bb e9bf 2cf5 3e3f 0107 bfbe
00000040: af86 0a3f 06a6 a23e 7ccd 27c0 8196 e83e
00000050: d508 e0bc 21bb 2140 e30d 67c0 bb3c 62bd
00000060: ea9d 3d3e 9b66 893e 0632 82bd 8f7d fc3c
00000070: 2d07 44be a9af 0ac0 9ac5 4a3f 970c 24bd
00000080: bedc 2140 e260 773f 6e98 e53e d4d0 ce3f
00000090: e2e2 bd3e e68f aa3e a51f fabe 8697 1d3f
000000a0: 9a2a 68bf b69e cdbe 3857 3c3d 1d28 553f
000000b0: a6b6 91bc 66bc ae3e db9d 0040 eece 893e
000000c0: 0cfc ec3e 0548 95be 306f e53e f1ff 26bf
000000d0: ab7e 8e3d 005a 883e a5bf b73d 824d 10c0
000000e0: 38f5 d43e 6d41 0640 6f98 2bbf e044 8c3e
000000f0: 6cac 15bf 6c44 b6bf 3e61 ffbf d938 583f
00000100: 356e 64bc 0440 2240 82ca d9be 7f83 ba3e
00000110: 888d a93f 035c 9e3e c7c2 813e 6567 103f
00000120: 50fd 17bf 2e51 99bf 7d07 b43d da58 003e
00000130: e970 723f 52c4 d2be 237b 4d3f c6b2 fd3f
00000140: 2f1b 343f 2514 e53e f408 7cbe 7e4c cf3e
00000150: 12ca 9dbf 55ab d1be 5139 16bd e82f 343f
00000160: a39b 89bd 6892 5b3f 60d6 0940 12d1 6dbe
00000170: 93ac dabc 640e efbe 826d 183f 952e c8bf
00000180: 2abd adbe aa46 283c 2150 863f 8826 23c0
00000190: c1c9 543f f071 163f 46c8 0cbe 26e6 91bd
000001a0: d7c9 fe3d 520f b23e b854 15c0 3154 5e3e
000001b0: 2b2c c9bc 7af3 1040 1f1e e23e 284a 1a3f
000001c0: 0c7b f63f 38b0 ee3e 9fd5 f73d 3025 0dbe
000001d0: 3742 bf3d 8a9d 3ebf 07f7 b0bd 4458 f73d
000001e0: a36b a93e 1268 363f 0039 b63e 2926 943f
000001f0: 76a3 0c3f 66c6 063e 11f8 15bf 3afe ff3e
00000200: ad24 b7be 967a 27bf 5c67 583c b03d d03e
00000210: 5e69 42c0 646c 8abc 704e 183f 411e 4f3d
00000220: 8fc0 81bb c44a d6be e663 22bf d807 34c0
00000230: a563 283f cb9c 13bc b325 2c40 800e 84bc
00000240: 0c56 e7bd b2ca 263e 28e5 383e 203f 90be
00000250: 4c9b 1dbe 102f 633e e0a4 47be 72fe 943e
00000260: f088 28be 4001 fc3c f326 45be 166f 7f3f
00000270: b43f 8ebf 0056 293f 2d6a c93e 041b 4c3f
00000280: 02f0 b6be dcc9 853e 24e1 2d3d 313c 843e
00000290: 6c12 6f3e 998e a63e 79dd 3f3e 6385 3740
000002a0: 97b3 993e f1f6 203f 2640 7a3d 0d16 40bc
000002b0: 059c 8bbf ebd3 443e a933 803e 3f30 e33e

conv1.0.bias f4 [16]
-0.2922606 2.8316576 2.3601396 4.3566 3.6723993 3.8831596 0.13051857 4.5821824
4.4261293 4.230996 4.0717754 3.6233792 2.3099933 -0.21841598 -2.9555533 4.420613
00000000: 2ea3 95be e139 3540 870c 1740 4469 8b40
00000010: 9708 6b40 b085 7840 a9a6 053e 3da1 9240
00000020: daa2 8d40 5264 8740 fc4b 8240 72e5 6740
00000030: eed6 1340 70a8 5fbe c927 3dc0 a975 8d40

conv1.2.weight f4 [32, 16]
-0.24517787 1.9296521 1.6045231 0.35546216 0.13528924 2.2143896 0.06777954 0.9068872
0.7781531 1.8876418 0.14306277 0.25745466 1.3387432 0.17939892 -0.17000778 0.05811066
0.1805594 1.6736857 1.3552514 0.33075377 0.11625132 2.4991474 -0.27852666 0.658829
1.1375985 1.5009904 0.2863413 0.14052053 1.5706495 0.044985056 0.09395657 -0.10446626
-0.106013745 1.8827507 1.7086083 -0.06734839 0.031158099 2.1896763 0.11963455 0.7492546
1.0121661 1.6381035 0.006292768 0.2570276 1.3897427 -0.07782954 -0.058956422 0.15284978
0.14113078 1.146776 1.9731257 0.5177526 0.1102775 2.0448303 -0.0030609863 1.0668179
1.1896446 1.290805 0.39408422 0.77465385 1.6809134 -0.009138942 0.018304782 0.15327874
-0.02945149 0.15799281 0.07509747 0.18545377 -0.10123813 -0.1911343 -0.23264009 -0.09519607
7.9870224e-05 -0.16545215 -0.060719907 0.02509433 -0.18576252 0.23578385 -0.16502327 -0.23529926
-0.20600417 -0.20430765 0.080697745 -0.041154593 -0.21445772 -0.21659812 0.10839695 -0.05989337
-0.10330951 0.07135525 -0.21334916 0.1058684 0.21514446 -0.12415129 -0.19942111 -0.042238384
-0.1357221 1.197105 1.1813704 0.11674755 -0.952789 -0.49835172 -0.38864332 0.57166237
0.63470167 0.27313957 0.050188486 0.5402196 -0.55759037 0.035039485 -0.034011718 -0.7928107
0.01874876 1.6608838 1.2851065 0.35650644 0.09747217 2.3961654 0.04761701 0.75493896
0.8179326 1.8467638 0.2541966 0.11598822 1.4744962 0.06372222 -0.10659617 -0.031135598
0.046130925 1.3514371 1.6174968 0.36594716 0.071327515 1.9731959 -0.18545206 0.527155
0.8348308 1.5071226 0.053784296 0.06737594 1.7591679 0.04156223 -0.23419021 0.29195824
-0.11670604 1.7859035 1.5808505 0.25478938 0.12654974 2.132038 -0.036530644 1.038543
1.0192456 1.6232312 0.19795275 0.42879662 1.2077612 -0.09244323 -0.12294589 0.21407177
0.14058915 1.5300756 1.9899944 -0.030033058 0.15020771 1.8897066 0.05438766 0.35432038
0.7433605 1.1850033 0.19673483 0.25737944 1.7261575 0.21998593 -0.23419549 0.13057308
-0.17118701 0.011714719 -0.17862451 0.028566567 0.13813207 -0.20848964 0.07842105 -0.24821724
-0.019036641 -0.10195798 0.066332065 -0.08315944 0.0955676 -0.05785972 -0.04445581 -0.2540643
0.06784549 -0.2614169 0.04258708 -0.3294555 0.05545877 -0.64677894 0.12435611 -0.4877707
-0.5799645 -0.33369145 0.15465297 0.15853818 -0.13489707 0.16503671 -0.08624281 -0.055911224
-0.032718092 1.9275995 1.5183232 0.07662707 -0.04236058 2.1012769 0.14475797 0.97927564
1.0302335 1.6329525 0.13331781 0.16199738 1.4055978 0.1551947 0.0814498 -0.00017261015
-0.1469109 0.19059536 -0.4531734 0.37641916 -0.26665065 0.23217043 -0.122785546 0.5216839
0.73925775 0.98315495 0.06592983 0.45782146 0.32509744 0.15803295 0.032991275 -0.63357013
0.025791466 -0.17290148 -0.18997255 -0.039814502 -0.22080508 0.13003269 0.15585276 -0.18003258
0.11778727 -0.19241881 -0.22754079 0.13753223 -0.05269116 0.011286557 0.009078324 0.19696102
00000000: e80f 7bbe d7fe f63f 0361 cd3f 23ff b53e
00000010: 4389 0a3e 8fb8 0d40 00d0 8a3d c229 683f
00000020: 0b35 473f 3f9e f13f 0c7f 123e 19d1 833e
00000030: f05b ab3f 5ab4 373e 8516 2ebe 7205 6e3d
00000040: 90e4 383e 553b d63f e178 ad3f 8f58 a93e
00000050: 2c15 ee3d 08f2 1f40 0c9b 8ebe 04a9 283f
00000060: d49c 913f 7420 c03f 549b 923e 9de4 0f3e
00000070: 0b0b c93f 4042 383d 4d6c c03d 68f2 d5bd
00000080: bc1d d9bd fafd f03f adb3 da3f f4ed 89bd
00000090: 453f ff3c a823 0c40 f502 f53d 26cf 3f3f
000000a0: a98e 813f 60ad d13f 9033 ce3b 1f99 833e
000000b0: 17e3 b13f 1865 9fbd 4a7c 71bd a784 1c3e
000000c0: 9684 103e 8ec9 923f 628f fc3f 6f8b 043f
000000d0: 2bd9 e13d 80de 0240 d49a 48bb 7d8d 883f
000000e0: 4646 983f 1939 a53f 68c5 c93e b74f 463f
000000f0: 2c28 d73f 80bb 15bc e9f3 953c 1af5 1c3e
00000100: 4044 f1bc dec8 213e b4cc 993d 98e7 3d3e
00000110: f055 cfbd b6b8 43be 3439 6ebe 28f6 c2bd
00000120: 0080 a738 4a6c 29be 70b5 78bd a092 cd3c
00000130: 8838 3ebe 5271 713e dcfb 28be 4af2 70be
00000140: c2f2 52be 0636 51be dc44 a53d b891 28bd
00000150: ce9a 5bbe e6cb 5dbe 38ff dd3d c052 75bd
00000160: f093 d3bd b422 923d 3478 5abe 88d1 d83d
00000170: d44e 5c3e 0843 febd 0c35 4cbe 2802 2dbd
00000180: bcfa 0abe bd3a 993f 2537 973f 5719 ef3d
00000190: fbe9 73bf f527 ffbe 42fc c6be 7758 123f
000001a0: cf7b 223f f3d8 8b3e 7192 4d3d d54b 0a3f
000001b0: 3ebe 0ebf 9085 0f3d df4f 0bbd a4f5 4abf
000001c0: 0097 993c d797 d43f 5f7e a43f 0388 b63e
000001d0: 7d9f c73d c65a 1940 0e0a 433d ae43 413f
000001e0: 0864 513f c262 ec3f 0f26 823e 3b8b ed3d
000001f0: 4bbc bc3f cc80 823d 184f dabd 1510 ffbc
00000200: c8f3 3c3d e4fb ac3f 230a cf3f 6d5d bb3e
00000210: 2914 923d af91 fc3f 25e7 3dbe a1f3 063f
00000220: 79b7 553f 65e9 c03f ec4c 5c3d 66fc 893d
00000230: 6a2c e13f 283d 2a3d 8fcf 6fbe 8d7b 953e
00000240: 9403 efbd 7c98 e43f 4f59 ca3f c173 823e
00000250: 4196 013e 5073 0840 28a1 15bd faee 843f
00000260: a476 823f 0ac6 cf3f 20b4 4a3e 3b8b db3e
00000270: eb97 9a3f e052 bdbd 0ecb fbbd a135 5b3e
00000280: 9af6 0f3e 84d9 c33f 23b8 fe3f e307 f6bc
00000290: 0dd0 193e e8e1 f13f 98c5 5e3d 7b69 b53e
000002a0: e04c 3e3f 30ae 973f db74 493e 3dc7 833e
000002b0: bbf2 dc3f fe43 613e f1d0 6fbe f3b4 053e
000002c0: a64b 2fbe 18ef 3f3c 58e9 36be 6f04 ea3c
000002d0: 7e72 0d3e 4f7e 55be 379b a03d a92c 7ebe
000002e0: bbf2 9bbc 58cf d0bd 1bd9 873d 7f4f aabd
000002f0: f2b8 c33d 50fe 6cbd 4c17 36bd b714 82be
00000300: 94f2 8a3d 70d8 85be ca6f 2e3d 64ae a8be
00000310: bc28 633d 4e93 25bf 6bae fe3d 15bd f9be
00000320: 8e78 14bf 9bd9 aabe 595d 1e3e d557 223e
00000330: 7522 0abe 62ff 283e 12a0 b0bd 2b03 65bd
00000340: 6803 06bd 95bb f63f 6a58 c23f a7ee 9c3d
00000350: 4a82 2dbd 527b 0640 6f3b 143e cfb1 7a3f
00000360: b1de 833f 9604 d13f 7784 083e a4e2 253e
00000370: a1ea b33f 5ceb 1e3e 27cf a63d affe 34b9
00000380: d06f 16be 6e2b 433e 5806 e8be 03ba c03e
00000390: 6f86 88be 16be 6d3e fd76 fbbd 138d 053f
000003a0: ff3f 3d3f 0bb0 7b3f 3806 873d 9367 ea3e
000003b0: 2c73 a63e 64d3 213e dc21 073d a731 22bf
000003c0: a048 d33c 160d 31be 2a88 42be 8814 23bd
000003d0: ba1a 62be 4a27 053e de97 1f3e 765a 38be
000003e0: 743a f13d 7009 45be 7400 69be 40d5 0c3e
000003f0: b0d2 57bd 40eb 383c 40bd 143c 26b0 493e

conv1.2.bias f4 [32]
3.3514295 3.7553794 3.7971826 2.68024 0.0030394197 -0.24557206 3.19797 3.3372831
3.8037276 3.3975387 3.8167841 0.053255603 -0.6446225 3.7783875 -0.8845894 -0.056305885
3.758403 3.5106084 0.011226565 3.3262799 3.7562668 0.088102385 3.8923805 -0.24960405
0.029557645 3.896442 -1.7799842 -0.771044 3.357191 3.5798664 -0.29345766 3.737973
00000000: d27d 5640 2358 7040 0a05 7340 0d89 2b40
00000010: 0031 473b 3e77 7bbe 8aab 4c40 0c96 5540
00000020: 4670 7340 4671 5940 3146 7440 8c22 5a3d
00000030: fb05 25bf 1ad1 7140 7374 62bf 00a1 66bd
00000040: ad89 7040 cfad 6040 a0ef 373c c5e1 5440
00000050: ad66 7040 066f b43d c31c 7940 3498 7fbe
00000060: e022 f23c 4e5f 7940 86d6 e3bf 2463 45bf
00000070: 38dc 5640 881c 6540 1540 96be f33a 6f40

conv1.5.weight f4 [8, 32]
0.60724974 0.7083925 0.72179335 0.19106968 0.12175305 0.075934485 4.264002 0.6552065
0.7978566 0.6552431 0.9510105 -0.053796984 -0.36201602 0.55763793 -1.7297064 -0.12124523
0.9800847 0.6717829 0.042030305 0.8691082 0.8190913 -0.07207359 1.0998269 0.11684735
-0.13497347 0.5508464 -1.9761168 -1.827166 0.63973343 0.64198244 -0.03390278 0.9474939
0.6427556 0.75568634 0.7610333 0.08224251 0.13416098 0.16158046 4.158101 0.7634809
0.98230416 0.8230358 0.9264176 -0.09260251 -0.35249367 0.71834767 -1.6187216 0.113962755
0.92671096 0.7129904 0.09517191 0.93975085 0.7118575 0.07670135 1.395916 -0.071534604
-0.15824641 0.6393006 -1.8480911 -1.7361128 0.7589087 0.7336466 -0.133974 1.1263524
0.5409607 0.7068072 0.80340296 0.39656943 -0.05574721 -0.11631702 4.237082 0.60369843
0.92651147 0.6258693 1.20827 0.011431828 -0.49575114 0.583415 -1.6286716 -0.09722272
1.1241779 0.8167139 -0.032431066 0.76559526 0.866051 -0.0119809555 1.2720805 0.11938389
0.1565874 0.55946153 -1.9244423 -1.8971239 0.47670177 0.80053484 0.13928068 1.1261008
0.10401202 -0.079955384 -0.121461846 0.035611644 0.006320551 -0.082212634 0.0024959578 -0.1513074
-0.26503232 -0.15086381 0.020136613 -0.20409012 0.08569877 -0.20013273 -0.16824651 -0.061285056
-0.31787378 -0.09785467 -0.04732564 -0.15907653 -0.084519304 -0.17856848 -0.2186083 -0.03544946
-0.06760047 -0.04318238 -0.09837081 0.07010158 -0.015775632 -0.03011872 -0.026519911 -0.19193107
0.80208117 0.8767734 0.6979055 0.40175894 -0.08466735 0.08215718 4.138886 0.723872
1.0569477 0.9085397 1.014277 -0.010859674 -0.386355 0.7816327 -1.6073698 0.015728146
1.0925227 0.90642226 0.010260075 0.78510785 0.99541646 -0.051657595 1.3039427 -0.11451277
-0.045415297 0.75759315 -1.9736494 -1.8008435 0.840192 0.62628204 -0.064876765 0.9657762
0.38191023 -0.15024456 -0.044632554 1.5348933 0.13203524 0.08542456 2.1160378 0.20100568
-0.022284994 -1.0868473 -0.030659564 -0.1879731 -0.16872518 0.26168078 0.17044678 -0.07015602
-0.33063507 0.36439547 0.096397 0.25548622 0.34627706 -0.048167203 -0.17165686 -0.022337973
-0.077464454 -1.3212103 0.03056994 0.50641006 -0.20299003 0.25028622 0.1460087 -0.19783744
0.053803474 0.032833233 -0.17214632 -0.047746886 -0.17303264 0.12409906 -0.06746283 -0.1672498
-0.24423242 -0.057396628 0.12512602 0.04376777 0.09903757 -0.101496175 0.038064186 -0.13671094
-0.19458608 -0.11617351 -0.068967186 -0.25313345 -0.12477457 -0.053608313 -0.18902916 -0.12137143
-0.17515463 -0.076881886 0.04062199 -0.023706246 -0.020153828 -0.04971602 0.0061924397 -0.26844794
0.6579708 0.987538 1.0244619 0.18168958 -0.029303327 -0.1116725 4.2948604 0.9117203
1.0146105 0.85521543 0.99865323 0.19558305 -0.4678132 0.72644347 -1.7389435 0.17531581
1.1037602 0.7047736 -0.030045554 0.9616875 0.76061594 -0.0052697365 1.1571401 -0.1704559
0.1442327 0.7504915 -1.7010825 -1.5246928 0.8613311 0.60122705 -0.14694676 1.0691077
00000000: b874 1b3f 3659 353f 73c7 383f c5a7 433e
00000010: aa59 f93d 8a83 9b3d b472 8840 9dbb 273f
00000020: 5540 4c3f 03be 273f 6d75 733f 3a5a 5cbd
00000030: 2a5a b9be 5cc1 0e3f 0567 ddbf 6b4f f8bd
00000040: d5e6 7a3f f7f9 2b3f f827 2c3d e07d 5e3f
00000050: f8af 513f 519b 93bd 21c7 8c3f aa4d ef3d
00000060: 7c36 0abe 4504 0d3f 65f1 fcbf 93e0 e9bf
00000070: 92c5 233f f658 243f a4dd 0abd f68e 723f
00000080: a28b 243f a974 413f 14d3 423f c36e a83d
00000090: 7f61 093e 5975 253e 2a0f 8540 7c73 433f
000000a0: 4978 7b3f 79b2 523f b429 6d3f 62a6 bdbd
000000b0: 0d7a b4be a2e5 373f 4532 cfbf 4e65 e93d
000000c0: ee3c 6d3f 8a86 363f 7ee9 c23d 8393 703f
000000d0: 4b3c 363f 9915 9d3d 60ad b23f bc80 92bd
000000e0: 590b 22be 34a9 233f 408e ecbf f238 debf
000000f0: d747 423f 43d0 3b3f 7b30 09be 512c 903f
00000100: 677c 0a3f 51f1 343f d1ab 4d3f 260b cb3e
00000110: 3057 64bd 9e37 eebd 2d96 8740 fb8b 1a3f
00000120: db2f 6d3f f838 203f 97a8 9a3f 904c 3b3c
00000130: 18d3 fdbe af5a 153f 5078 d0bf b51c c7bd
00000140: 10e5 8f3f 2a14 513f 70d6 04bd 0dfe 433f
00000150: 85b5 5d3f c54b 44bc 89d3 a23f 8a7f f43d
00000160: 7358 203e df38 0f3f 2054 f6bf f5d4 f2bf
00000170: 4112 f43e daef 4c3f 989f 0e3e 1224 903f
00000180: 4104 d53d a6bf a3bd fdc0 f8bd 84dd 113d
00000190: a01c cf3b 195f a8bd 3993 233b 54f0 1abe
000001a0: 51b2 87be 0b7c 1abe 8af5 a43c 00fd 50be
000001b0: d682 af3d 98ef 4cbe d048 2cbe 0a06 7bbd
000001c0: 5ac0 a2be 0768 c8bd 88d8 41bd f5e4 22be
000001d0: 7518 adbd a8da 36be dbda 5fbe 7433 11bd
000001e0: 1d72 8abd 02e0 30bd a376 c9bd 6b91 8f3d
000001f0: e63b 81bc 89bb f6bc 4940 d9bc 9489 44be
00000200: 3155 4d3f 3974 603f efa9 323f 59b3 cd3e
00000210: 1366 adbd 0642 a83d c171 8440 ad4f 393f
00000220: 104a 873f 0f96 683f d4d3 813f c6ec 31bc
00000230: 53d0 c5be 1519 483f 4bbe cdbf 50d8 803c
00000240: c9d7 8b3f 4a0b 683f e019 283c d4fc 483f
00000250: 9dd3 7e3f ea96 53bd 98e7 a63f ac85 eabd
00000260: 6405 3abd a0f1 413f 8ba0 fcbf 0a82 e6bf
00000270: d316 573f 0554 203f 1cde 84bd 1c3d 773f
00000280: bd89 c33e b6d9 19be a0d0 36bd 6277 c43f
00000290: 3f34 073e 12f3 ae3d 2a6d 0740 6fd4 4d3e
000002a0: 058f b6bc d01d 8bbf c429 fbbc 057c 40be
000002b0: 4bc6 2cbe 06fb 853e 9a89 2e3e f6ad 8fbd
000002c0: 0049 a9be 0b92 ba3e ca6b c53d 17cf 823e
000002d0: 3a4b b13e f94a 45bd d1c6 2fbe 20fe b6bc
000002e0: afa5 9ebd 6b1d a9bf d06d fa3c 17a4 013f
000002f0: 9edc 4fbe 8425 803e 4e83 153e e695 4abe
00000300: 0861 5c3d 247c 063d 2047 30be 3d92 43bd
00000310: 782f 31be a627 fe3d f429 8abd 8843 2bbe
00000320: 1018 7abe ba18 6bbd 0921 003e d545 333d
00000330: 36d4 ca3d 3add cfbd 31e9 1b3d f4fd 0bbe
00000340: 9341 47be 61ec edbd ab3e 8dbd b59a 81be
00000350: cf89 ffbd 6494 5bbd dc90 41be 9691 f8bd
00000360: bc5b 33be 4074 9dbd 3e63 263d 9a33 c2bc
00000370: a419 a5bc 06a3 4bbd f3e9 ca3b 0272 89be
00000380: c670 283f 4acf 7c3f 9121 833f d50c 3a3e
00000390: 880d f0bc 8db4 e4bd 7f6f 8940 8066 693f
000003a0: c2de 813f 66ef 5a3f bda7 7f3f ec46 483e
000003b0: 3685 efbe 33f8 393f b395 debf fd85 333e
000003c0: 0448 8d3f 0b6c 343f 1822 f6bc 2731 763f
000003d0: bab7 423f c1ad acbb 2b1d 943f fe8b 2ebe
000003e0: bdb1 133e 3620 403f 12bd d9bf 2229 c3bf
000003f0: 3280 5c3f 04ea 193f 3679 16be 85d8 883f

conv1.5.bias f4 [8]
4.5273705 4.4935946 4.991977 -0.12530972 4.9714437 2.09358 -0.2033809 5.030013
00000000: 38e0 9040 87cb 8f40 47be 9f40 3151 00be
00000010: 1116 9f40 37fd 0540 1543 50be def5 a040

conv1.7.weight f4 [1, 8]
1.3127818 1.108646 1.4620937 -0.2108651 1.0326087 1.965454 -0.17528217 1.0058254
00000000: 3c09 a83f 1de8 8d3f e325 bb3f 05ed 57be
00000010: 862c 843f ff93 fb3f 2b7d 33be e3be 803f
