neuralNetwork/dl.pth (torch, 6543 bytes, 7 tensors)

conv1.0.weight f4 [16, 11]
-0.08347712 0.32454917 0.3139284 0.2169218 0.040053293 -0.27221432 -0.027283147 -1.5846596
-0.025791978 0.011749264 0.076592214 -1.1298832 0.22972244 3.2686121 -0.106230095 0.059063815
0.12151824 -0.33554238 -0.9185645 -0.039693862 -0.016891573 1.5531225 0.2614858 0.39878595
0.0657765 0.47250095 -0.037107833 -0.08557245 -0.44426003 -0.86117154 -0.6826695 0.16405341
0.9641512 -1.5551809 0.45801255 0.44628996 0.34408882 -0.74703896 -0.39398476 -0.51300377
-1.7720578 -0.6042526 0.11442123 0.60659397 0.90839493 0.55470425 0.72582406 0.106636085
0.08033985 -0.5405975 -0.42421392 -0.64976496 -0.2704723 0.022128137 0.6247454 1.5692735
0.8836556 3.227861 -0.24385591 1.0457195 0.8646318 0.6102645 0.9502643 0.77882993
0.10181133 -0.628934 0.7081988 0.2834341 0.38401806 0.17602594 -0.13386871 0.33509195
-0.43051782 -0.35461637 -0.078116015 0.17565767 0.054039765 -3.8297255 0.051163852 -3.3265812
0.3395369 -0.16850223 -0.20140333 1.2798884 -2.9577153 0.10715358 0.017492501 0.73080635
-1.8654249 0.5087119 0.8014023 0.33804104 -0.14311278 -0.35422832 0.19264002 -1.1430297
-0.25993928 0.04197702 1.5194098 0.4894879 0.71538985 1.0445665 -0.048824694 0.015287177
-0.22777118 -0.32096463 -0.6157755 0.08517883 0.23145469 -0.09161082 0.75711876 0.17329648
0.039596315 0.76510876 0.44387907 -0.40411153 0.009101292 -1.0567359 -0.8747713 0.08099869
1.3169239 -1.1333259 0.17966098 -1.6066524 0.04210291 0.16294822 -0.95799977 0.5772668
-1.4918385 0.64174217 -0.028381962 2.0971937 -3.2342815 0.015126774 -1.0433859 0.1823869
0.11672375 0.59792364 0.20339431 0.75158006 1.5247334 -0.13987546 2.8638678 0.96812993
0.52275354 1.4262154 0.21672542 -0.0059542777 -0.1149059 -0.09453288 -1.0197443 -0.27959415
0.17043461 -0.2986524 0.92831886 0.41198218 -0.1227279 0.46311167 1.3609406 0.24839215
0.43197358 -0.23559833 0.40950477 0.032698095 1.5270861 -1.296896 0.0023786407 3.0065875
-0.33481824 0.14064315 -0.6923564 -0.68916035 -3.3690712 0.45167008 0.009853582 2.1398761
00000000: 0df6 aabd 4f2b a63e 39bb a03e c020 5e3e
00000010: ec0e 243d ad5f 8bbe e880 dfbc 20d6 cabf
00000020: b349 d3bc fc7f 403c 61dc 9c3d 03a0 90bf
00000030: 5c3c 6b3e f130 5140 2a8f d9bd e6ec 713d
00000040: 8ede f83d 36cc abbe 0b27 6bbf 0896 22bd
00000050: 3260 8abc b8cc c63f 77e1 853e ac2d cc3e
00000060: d4b5 863d a5eb f13e 62fe 17bd 9c40 afbd
00000070: 0d76 e3be bd75 5cbf 6ec3 2ebf 9efd 273e
00000080: 9dd2 763f 2b10 c7bf 9f80 ea3e 1e80 e43e
00000090: 692c b03e f23d 3fbf 5fb8 c9be 3754 03bf
000000a0: cad2 e2bf 4cb0 1abf ae55 ea3d be49 1b3f
000000b0: 928c 683f 1901 0e3f 9bcf 393f 0564 da3d
000000c0: 3889 a43d 9964 0abf 9132 d9be ff56 26bf
000000d0: 587b 8abe 1146 b53c 51ef 1f3f f4dd c83f
000000e0: 4137 623f 4695 4e40 5db5 79be 23da 853f
000000f0: 8258 5d3f 4b3a 1c3f 8544 733f 6661 473f
00000100: 7582 d03d d201 21bf 844c 353f 461e 913e
00000110: 049e c43e 2540 343e e114 09be 2c91 ab3e
00000120: d56c dcbe 4790 b5be 4afb 9fbd 9bdf 333e
00000130: cd58 5d3d 391a 75c0 3091 513d b5e6 54c0
00000140: c8d7 ad3e d98b 2cbe ad3c 4ebe 62d3 a33f
00000150: 354b 3dc0 5673 db3d 6f4c 8f3c 2016 3b3f
00000160: 3ec6 eebf f13a 023f b328 4d3f b713 ad3e
00000170: 288c 12be 6a5d b5be 6d43 453e cc4e 92bf
00000180: c316 85be 19f0 2b3d 057c c23f 289e fa3e
00000190: ca23 373f 5bb4 853f 67fc 47bd 1177 7a3c
000001a0: d93c 69be 7a55 a4be 77a3 1dbf 3d72 ae3d
000001b0: 7502 6d3e 749e bbbd 89d2 413f a274 313e
000001c0: bf2f 223d 2bde 433f 1e44 e33e b5e7 cebe
000001d0: 961d 153c 1f43 87bf 03f1 5fbf a4e2 a53d
000001e0: f690 a83f d310 91bf 0cf9 373e c9a6 cdbf
000001f0: 1a74 2c3d e6db 263e 793f 75bf c2c7 133f
00000200: 90f4 bebf 3749 243f 4a81 e8bc 6c38 0640
00000210: 78fe 4ec0 4ad6 773c ab8d 85bf a2c3 3a3e
00000220: dd0c ef3d 8611 193f 9946 503e 8d67 403f
00000230: 772a c33f 833b 0fbe 9c49 3740 5dd7 773f
00000240: 2dd3 053f 3a8e b63f 45ed 5d3e 1a1c c3bb
00000250: c953 ebbd 749a c1bd fb86 82bf f726 8fbe
00000260: 6986 2e3e f8e8 98be 4ea6 6d3f 54ef d23e
00000270: c458 fbbd f91c ed3e 4d33 ae3f 835a 7e3e
00000280: a42b dd3e b040 71be 9caa d13e 70ee 053d
00000290: 8f77 c33f b000 a6bf f8e2 1b3b ee6b 4040
000002a0: 4c6d abbe c204 103e 453e 31bf d06c 30bf
000002b0: dd9e 57c0 4d41 e73e eb70 213c bbf3 0840

conv1.0.bias f4 [16]
7.086127 3.9785683 6.091456 -2.4967897 6.770946 1.4385984 5.5466447 -2.5043213
6.969412 6.168205 -1.352307 5.56576 5.944815 6.9396014 -4.928279 4.7087674
00000000: 8dc1 e240 dda0 7e40 35ed c240 67cb 1fc0
00000010: 97ab d840 fe23 b83f 1d7e b140 cd46 20c0
00000020: 6c05 df40 ef61 c540 6518 adbf b51a b240
00000030: ed3b be40 3711 de40 76b4 9dc0 39ae 9640

conv1.2.weight f4 [32, 16]
-0.14622429 -0.17496485 0.03526944 0.23226511 -0.03342676 -0.23949358 -0.13802576 -0.2487205
0.12937596 -0.13406372 -0.23644418 0.06516552 -0.11258599 -0.23696041 -0.08966079 -0.12569723
0.25784424 0.5989457 0.14837995 -1.2599967 0.3163019 -0.11655829 0.10337036 1.6626881
0.8613226 0.030063905 0.16022526 -0.46979412 1.4320209 0.40872186 -0.50678545 1.5412471
0.31846756 0.78437847 0.34179395 -1.1499231 0.43904933 -0.22287464 0.25166136 1.8334801
1.0188679 0.0284952 -0.0027454768 -0.22751027 1.5281143 0.05164172 -0.2356264 1.9825013
0.66523355 0.6779003 0.08259614 -1.0459682 0.25804594 0.027762966 0.0110053755 1.7556278
0.8853113 0.17924005 0.09305156 -0.46622336 1.3696443 0.11335809 -0.47330302 1.6218929
0.46100894 0.43110883 0.15064117 -1.1675202 0.44990832 -0.26103845 0.15088136 1.7335885
0.92151785 0.27427804 -0.16009557 -0.68176013 1.3010451 0.062032577 -0.21269695 1.5703013
0.56452525 0.52651095 0.35870484 -1.200293 0.33553296 -0.036487482 0.16568913 1.6417711
0.8282013 -0.016727198 -0.1309858 -0.4985014 1.2891539 0.16057706 -0.42450115 1.3949548
0.49368402 0.5090973 0.245521 -1.3820176 0.40346867 -0.25698647 0.038721632 1.7079846
0.81622607 0.2707448 -0.067036405 -0.70574117 1.5191988 0.28476423 -0.3983307 1.4185864
0.5626237 0.4034507 0.13244493 -1.1565524 0.40193513 -0.03331299 0.23778814 1.7037181
0.9219299 0.13014966 -0.054420687 -0.69240457 1.2729234 -0.01636595 -0.41682565 1.6021976
0.44059527 0.5073829 0.06063514 -0.98170865 0.29818597 -0.07417787 0.2913027 1.6504146
0.8903774 -0.095385715 0.13150989 -0.24107815 1.3596364 0.24742213 -0.37464148 1.866033
0.3346955 0.19659603 0.27954614 -1.2919937 0.4552003 -0.18417263 -0.14714171 1.547747
0.65161496 0.35277218 -0.09594626 -0.78052443 1.2527236 0.2968063 -0.4680592 0.8780721
0.63180095 0.6674219 0.22151554 -1.2250522 0.42185172 -0.28805518 0.3068191 1.7936946
0.71673375 0.07919055 -0.16351928 -0.64800453 1.5067928 0.27033493 -0.27998623 1.5900266
0.6231524 0.47228405 0.2442782 -1.0909917 0.3449508 -0.22073852 -0.050506458 1.5599765
0.62612593 0.32191533 -0.13312243 -0.62992257 1.360249 0.17188233 -0.29059538 1.2840415
0.42982343 0.72048324 0.07442825 -0.9099081 0.27717692 -0.21171756 0.12950946 1.5705284
0.5588719 0.17205325 -0.012002703 -0.58991677 1.1112591 0.17290823 -0.2096603 1.503018
4.1216612e-05 0.008354247 -0.2383303 -0.13091424 -0.20835352 -0.2167292 -0.041400164 -0.22411123
-0.23270041 -0.08300167 -0.1528359 0.12067774 0.2014612 -0.24570313 -0.036379635 -0.13818824
0.3447169 0.5761219 0.40437368 -1.2537806 0.29604352 -0.27538815 0.037114114 1.5748533
0.6715169 0.25519794 -0.04083048 -0.6622507 1.3505362 0.112283275 -0.32616082 1.4531527
0.4818805 0.2558726 0.3035869 -1.3524965 0.23506424 -0.21143363 -0.09939335 1.5140674
0.7224277 0.2675356 -0.042557124 -0.659971 1.2863598 0.39742443 -0.49424064 1.2879051
00000000: d2bb 15be fc29 33be b076 103d e8d6 6d3e
00000010: 80ea 08bd ce3d 75be a056 0dbe 96b0 7ebe
00000020: 227b 043e 0048 09be 6c1e 72be 8075 853d
00000030: 7c93 e6bd c0a5 72be 14a0 b7bd c6b6 00be
00000040: 2904 843e 8154 193f eaf0 173e 9247 a1bf
00000050: 53f2 a13e 1db6 eebd d7b3 d33d f7d2 d43f
00000060: a37f 5c3f 9448 f63c 1712 243e db88 f0be
00000070: 764c b73f fe43 d13e b1bc 01bf 9647 c53f
00000080: 2e0e a33e 07cd 483f 9eff ae3e ae30 93bf
00000090: 13cb e03e 4039 64be c2d9 803e 7aaf ea3f
000000a0: 436a 823f c46e e93c 75ed 33bb 74f8 68be
000000b0: 4099 c33f 4586 533d 0c48 71be 9ac2 fd3f
000000c0: bf4c 2a3f e08a 2d3f 2a28 a93d 49e2 85bf
000000d0: 991e 843e 296f e33c e44f 343c 69b8 e03f
000000e0: c3a3 623f b48a 373e d191 be3d d4b4 eebe
000000f0: 8150 af3f 4928 e83d c654 f2be 309a cf3f
00000100: 5d09 ec3e 4cba dc3e ae41 1a3e 4d71 95bf
00000110: 625a e63e d5a6 85be a580 1a3e 3ae6 dd3f
00000120: 98e8 6b3f 2c6e 8c3e 18f0 23be d587 2ebf
00000130: a588 a63f df15 7e3d 3bcd 59be a2ff c83f
00000140: ba84 103f 6cc9 063f 29a8 b73e 33a3 99bf
00000150: faca ab3e e673 15bd 69aa 293e 8e25 d23f
00000160: 0005 543f 7a07 89bc 2421 06be 933b ffbe
00000170: ff02 a53f 506e 243e 3758 d9be e18d b23f
00000180: 27c4 fc3e 3354 023f db69 7b3e f4e5 b0bf
00000190: 7293 ce3e bb93 83be 939a 1e3d 3d9f da3f
000001a0: 31f4 503f 109f 8a3e 624a 89bd 74ab 34bf
000001b0: 1b75 c23f 9ecc 913e 00f2 cbbe 3d94 b53f
000001c0: 1b08 103f 1791 ce3e a59f 073e e909 94bf
000001d0: 71ca cd3e 3473 08bd bc7e 733e 6f13 da3f
000001e0: 9903 6c3f f445 053e 3ae8 5ebd 6d41 31bf
000001f0: 27ef a23f e311 86bc 2c6a d5be d014 cd3f
00000200: b495 e13e d9e3 013f 8d5c 783d 4251 7bbf
00000210: d5ab 983e 91ea 97bd a125 953e c940 d33f
00000220: c6ef 633f 9659 c3bd 87aa 063e 31dd 76be
00000230: 9108 ae3f 3a5c 7d3e 02d1 bfbe 2bda ee3f
00000240: 355d ab3e 7850 493e ac20 8f3e 0d60 a5bf
00000250: 0410 e93e c097 3cbe 51ac 16be 931c c63f
00000260: 3dd0 263f 8e9e b43e 797f c4bd 73d0 47bf
00000270: 3f59 a03f fff6 973e 75a5 efbe 55c9 603f
00000280: b5bd 213f 29dc 2a3f f8d4 623e 83ce 9cbf
00000290: f3fc d73e f87b 93be 6517 9d3e c997 e53f
000002a0: dd7b 373f a82e a23d 9971 27be a0e3 25bf
000002b0: 96de c03f 5769 8a3e 5b5a 8fbe fe85 cb3f
000002c0: ea86 1f3f 37cf f13e 1124 7a3e 9ea5 8bbf
000002d0: 649d b03e 4709 62be dcdf 4ebd 4fad c73f
000002e0: ca49 203f 16d2 a43e 3f51 08be 9b42 21bf
000002f0: a41c ae3f ec01 303e ebc8 94be 795b a43f
00000300: d111 dc3e 9771 383f d76d 983d bdef 68bf
00000310: 22ea 8d3e 7dcc 58be 219e 043e 1307 c93f
00000320: 3b12 0f3f ba2e 303e fca6 44bc c904 17bf
00000330: bd3d 8e3f db0e 313e 31b1 56be e562 c03f
00000340: 00e0 2c38 40e0 083c dc0c 74be 620e 06be
00000350: a05a 55be 42ee 5dbe 3893 29bd 6a7d 65be
00000360: 0449 6ebe c8fc a9bd 0481 1cbe e425 f73d
00000370: d84b 4e3e 9a99 7bbe d002 15bd 3881 0dbe
00000380: bc7e b03e ba7c 133f 110a cf3e e27b a0bf
00000390: 0493 973e adff 8cbe f804 183d cb94 c93f
000003a0: 88e8 2b3f 4ea9 823e dd3d 27bd 4389 29bf
000003b0: 5fde ac3f c6f4 e53d 8dfe a6be e800 ba3f
000003c0: 0ab9 f63e bc01 833e be6f 9b3e 9b1e adbf
000003d0: aeb4 703e 0f82 58be be8e cbbd f6cc c13f
000003e0: 06f1 383f 6dfa 883e 6150 2ebd dcf3 28bf
000003f0: 70a7 a43f 377b cb3e 1c0d fdbe 13da a43f

conv1.2.bias f4 [32]
0.13638034 5.160523 5.532299 4.971373 5.3929152 4.972049 5.1585984 5.3740454
5.235696 5.2094903 5.1261287 5.026808 5.4178534 0.12344903 5.1363673 5.4894643
-1.9491533 5.195525 5.4737544 5.6144776 5.324318 -2.9758546 4.7092876 5.430636
5.4545326 -0.18511485 5.163069 5.05655 -0.16970679 5.130964 5.4643955 5.1313624
00000000: 4aa7 0b3e 0123 a540 9808 b140 7d15 9f40
00000010: c392 ac40 071b 9f40 3d13 a540 2ef8 ab40
00000020: d28a a740 25b4 a640 3f09 a440 9cdb a040
00000030: 0e5f ad40 d8d2 fc3d 1f5d a440 b1a9 af40
00000040: db7d f9bf be41 a640 ff28 af40 cda9 b340
00000050: d060 aa40 6774 3ec0 7cb2 9640 c5c7 ad40
00000060: 888b ae40 bf8e 3dbe dc37 a540 42cf a140
00000070: 9ec7 2dbe db30 a440 54dc ae40 1f34 a440

conv1.5.weight f4 [8, 32]
0.08341958 1.0571705 0.6597695 0.95542294 0.9442882 1.1118597 1.2110454 1.1230905
1.0273064 1.821969 1.0048685 1.0881594 1.0388196 0.15450753 1.3851154 1.7341976
-3.6777444 0.9146641 1.142608 0.7576066 1.1875006 -7.0834155 0.86592746 1.088796
1.0202503 0.054242782 0.7663787 0.95119184 0.029661015 0.8587224 1.1059066 1.3985839
0.09196739 0.88189703 0.61730266 0.8109665 0.95240766 0.89577323 1.0935719 1.0517318
0.76433843 1.6180533 0.90507585 1.0911942 1.0662509 0.14555503 1.0927492 1.4213256
-3.5531795 0.79782486 1.027476 0.6734428 0.95521015 -7.190025 1.0499216 1.0278533
0.8852301 0.07103066 0.76613593 0.65871 -0.030377999 0.87194514 1.2856709 1.3863182
0.14114605 1.1635883 0.88701344 0.85806775 1.2329897 1.2677128 1.465886 1.1726973
0.93637246 1.769408 1.3542256 1.1299518 1.2036256 -0.054975465 1.4301742 1.671751
-3.6781013 0.7845764 1.556836 1.2439761 1.3796303 -6.9164886 0.93997526 1.3691853
1.2118403 0.14325877 1.1663609 1.1588315 0.023620933 1.1872339 1.3394057 1.6678585
0.17041583 1.0460253 0.5981252 0.805177 0.8715105 0.8173611 0.83507913 0.7580143
0.71671367 1.4342446 0.95619947 0.96693236 0.9209253 -0.1385685 1.0671333 1.2001052
-3.8601398 0.71923584 1.2061434 0.71232295 1.1718843 -6.016546 0.6088611 1.009821
0.87110865 -0.13931173 0.78962624 0.7489924 0.023902133 0.8668621 1.2192236 1.065428
-0.16316321 -0.0911448 -0.022977188 -0.05078979 -0.1656172 -0.16761993 -0.13661298 -0.010769185
-0.01867656 -0.13721004 -0.006914195 -0.13908778 -0.14629097 -0.08244454 -0.07164155 0.090899065
0.05021572 -0.058419336 -0.053702205 -0.17469908 -0.05984709 -0.036996316 -0.075876355 0.027258819
-0.12972629 0.04920074 -0.17370628 0.010021303 -0.08590134 -0.023778496 -0.08421334 -0.061042357
-0.07635188 0.77897376 0.6144327 0.7891214 0.99619657 0.9342155 0.90069056 1.0619634
0.61641866 1.607133 0.79330504 1.1264832 1.1376898 -0.051568612 1.1402266 1.2709906
-3.7757819 0.5888876 1.0389502 0.72079915 1.2182176 -7.0129786 0.95756775 1.207378
0.84713656 0.04313021 0.74067366 0.8527299 -0.14108185 0.7977491 1.097346 1.1394283
0.025650337 0.8846341 0.5487623 0.85990405 0.9300762 0.9802215 0.9547679 1.0512843
0.83434266 1.6082814 0.76055557 1.1086637 1.1667718 -0.014675736 0.95548564 1.2782594
-3.7083862 0.7539931 1.1648852 0.58943653 1.1104445 -7.0445004 0.8496615 0.9033956
1.0115921 -0.12212664 0.6323111 0.8051944 -0.13033628 0.6712911 1.0185976 1.3154842
0.16339917 -0.124373436 -0.103419535 0.049552605 -0.12373178 -0.19727653 -0.22817908 -0.06784586
-0.1475202 -0.18303597 -0.124233 -0.18416467 -0.12314167 -0.06309809 0.027974967 0.047674518
-0.14229748 -0.11533894 -0.12570259 -0.13973926 0.049616784 -0.09200653 0.0518808 -0.17396925
0.021062566 0.13909335 -0.062078014 -0.086407 -0.11453988 -0.0317433 -0.111011565 -0.028153876
00000000: e2d7 aa3d 5d51 873f a7e6 283f 9996 743f
00000010: dfbc 713f 6b51 8e3f 8903 9b3f 6ec1 8f3f
00000020: c77e 833f 4836 e93f 889f 803f cf48 8b3f
00000030: 0af8 843f 3937 1e3e 764b b13f 30fa dd3f
00000040: 2a60 6bc0 6d27 6a3f fb40 923f 82f2 413f
00000050: 0500 983f 57ab e2c0 6cad 5d3f ab5d 8b3f
00000060: 9097 823f ae2d 5e3d 6531 443f 4f81 733f
00000070: a8fb f23c 3bd5 5b3f 598e 8d3f cc04 b33f
00000080: 6659 bc3d 01c4 613f 8c07 1e3f 809b 4f3f
00000090: fdd0 733f 6551 653f 2afa 8b3f 269f 863f
000000a0: afab 433f 5f1c cf3f 0db3 673f 40ac 8b3f
000000b0: e97a 883f 610c 153e 35df 8b3f ffed b53f
000000c0: 4b67 63c0 403e 4c3f 5584 833f bf66 2c3f
000000d0: a788 743f af14 e6c0 d563 863f b290 833f
000000e0: 719e 623f 8678 913d 7c21 443f 38a1 283f
000000f0: 48db f8bc cc37 5f3f dd90 a43f e072 b13f
00000100: 9788 103e 76f0 943f 5013 633f 54aa 5b3f
00000110: 9bd2 9d3f 6a44 a23f 27a2 bb3f f21a 963f
00000120: 1bb6 6f3f f67b e23f 4457 ad3f 43a2 903f
00000130: 6710 9a3f f42d 61bd f30f b73f f0fb d53f
00000140: 0366 6bc0 00da 483f 6746 c73f 9c3a 9f3f
00000150: ba97 b03f e053 ddc0 38a2 703f 7741 af3f
00000160: 951d 9b3f 6db2 123e 504b 953f 9754 943f
00000170: b080 c13c 48f7 973f a571 ab3f 637c d53f
00000180: 7d81 2e3e 28e4 853f bc1e 193f 1420 4e3f
00000190: 501b 5f3f 943e 513f bfc7 553f 3a0d 423f
000001a0: 8c7a 373f 5495 b73f 7dc9 743f e188 773f
000001b0: c3c1 6b3f e7e4 0dbe d397 883f 0c9d 993f
000001c0: 880c 77c0 d71f 383f e862 9a3f cc5a 363f
000001d0: 4e00 963f 8b87 c0c0 52de 1b3f d141 813f
000001e0: fa00 5f3f bca7 0ebe f224 4a3f f7bd 3f3f
000001f0: 68ce c33c adea 5d3f 850f 9c3f f25f 883f
00000200: 4214 27be 20aa babd a83a bcbc f408 50bd
00000210: 8e97 29be 8fa4 2bbe 46e4 0bbe 3c71 30bc
00000220: 96ff 98bc ca80 0cbe 7990 e2bb 076d 0ebe
00000230: 4dcd 15be afd8 a8bd ceb8 92bd 4a29 ba3d
00000240: 00af 4d3d 1d49 6fbd d8f6 5bbd 51e4 32be
00000250: 3922 75bd 7389 17bd 1065 9bbd e34d df3c
00000260: f8d6 04be b786 493d 0fe0 31be 6430 243c
00000270: 0bed afbd 1fcb c2bc 0b78 acbd 8d07 7abd
00000280: 605e 9cbd d36a 473f 764b 1d3f dc03 4a3f
00000290: bd06 7f3f bf28 6f3f a893 663f 6bee 873f
000002a0: 9dcd 1d3f 89b6 cd3f 0a16 4b3f 9a30 903f
000002b0: d29f 913f 9c39 53bd f2f2 913f d2af a23f
000002c0: 69a6 71c0 56c1 163f 52fc 843f 4b86 383f
000002d0: 8eee 9b3f 526a e0c0 2923 753f 5d8b 9a3f
000002e0: f1dd 583f 4ea9 303d ca9c 3d3f 824c 5a3f
000002f0: c377 10be 4939 4c3f d575 8c3f c9d8 913f
00000300: a820 d23c 6177 623f b07b 0c3f ac22 5c3f
00000310: 7919 6e3f ccef 7a3f ab6b 743f 7c90 863f
00000320: 7b97 553f 2adc cd3f c5b3 423f b1e8 8d3f
00000330: c758 953f 8072 70bc b59a 743f 019e a33f
00000340: 3356 6dc0 b105 413f f51a 953f 50e5 163f
00000350: 0c23 8e3f 8c6c e1c0 6b83 593f ef44 673f
00000360: da7b 813f 881d fabd 24df 213f 3821 4e3f
00000370: e076 05be bcd9 2b3f 6861 823f c961 a83f
00000380: 1d52 273e 80b7 febd 9fcd d3bd acf7 4a3d
00000390: 1667 fdbd dc02 4abe c7a7 69be c5f2 8abd
000003a0: 890f 17be c86d 3bbe df6d febd aa95 3cbe
000003b0: b331 fcbd 9239 81bd c22b e53c 5b46 433d
000003c0: 6eb6 11be d236 ecbd 2eb8 00be cf17 0fbe
000003d0: f83a 4b3d eb6d bcbd f680 543d ff24 32be
000003e0: 678b ac3c 7d6e 0e3e 8445 7ebd 27f6 b0bd
000003f0: e293 eabd 4305 02bd 085a e3bd f5a2 e6bc

conv1.5.bias f4 [8]
21.808535 21.472315 22.06491 20.840443 0.03835258 21.242111 21.458443 0.050889052
00000000: e177 ae41 4dc7 ab41 f084 b041 3ab9 a641
00000010: 9817 1d3d d8ef a941 e4aa ab41 0a71 503d

conv1.7.weight f4 [1, 8]
1.8874665 2.0607622 2.103456 2.0868127 -0.09726252 2.1061802 2.1118207 -0.18951577
00000000: 8198 f13f 87e3 0340 069f 0640 578e 0540
00000010: 9231 c7bd a8cb 0640 1228 0740 6c10 42be
