neuralNetwork/dl.pth (torch, 6543 bytes, 7 tensors)

conv1.0.weight f4 [16, 11]
00000000: 083d 8cbd 6249 41be e825 babd c844 433d
00000010: 6170 73be 30d6 cf3c 6ebf 8ebe 7871 663e
00000020: b855 4abd f401 ffbd 6842 bb3d 5349 42bc
00000030: 5a04 cbbe e3b6 6f3f 1666 bfbe 5655 17be
00000040: 0b70 edbe 0129 893e 655b 8dbf f62a 86bd
00000050: 25d9 763e fe4b ac3f 339e a23e 38df 833e
00000060: ba0a 943f a98d 0e3e a3eb 12be 88a3 f3be
00000070: 04fb 453e f45f 8fbf 96cf 3abe 0aab 933e
00000080: 165c 663f dba7 98bd 21af 173f 3eb4 b73f
00000090: 819d 173e 267c c13d 2a87 89be c7e9 b33e
000000a0: 0105 a8bf 6eef b83c 0727 873d 277a 973f
000000b0: 2ce5 383e e927 de3c 20cf a13f fd4a 603d
000000c0: 3c4c 6abc 2364 6abd 4d27 213e f2d8 94bf
000000d0: 1b7b aebe 4a92 ad3e c5d7 9b3f c3fb 0bbd
000000e0: 6fa1 1c3d f4ca 9c3f cbc6 093e aca9 483d
000000f0: 6fb6 e2be 7ca4 293f 3e0a 2fbf bea1 633d
00000100: ed25 e03e da4d 973f 2709 2cc0 c43f 433f
00000110: 281f 1a3f 57be f3bd c64c 263c f8d4 253e
00000120: e8e7 103e 2001 15c0 8824 733e 20e4 0fbd
00000130: f129 3d40 fefd 89be 2b34 5c3c 3460 bc3d
00000140: 3141 8abe 9e99 42be 42f9 a4bd f805 25bd
00000150: 49b4 7dbe da24 0fbe adf3 5abe aafa 863e
00000160: 58c3 71bc 1186 c93e 8a50 673f 48ba 2fbe
00000170: 4d7a 1dbd 7a70 3fbf a02f 113e 9c03 89bf
00000180: 91ff 69be 50a2 d83e 5d2e b03f e58c 9f3d
00000190: 0c21 743e b42f 8d3f 7b03 cdbc ecea 263e
000001a0: 5380 9ebe 0413 e93e d8e8 85bf 62d4 623e
000001b0: 8af3 193e d66d 943f 8bd6 8fbd cb51 d53e
000001c0: bbb5 8c3f 7939 823e e232 cb3e 5658 a9bd
000001d0: 2d7d 8d3e 1c9e 48bf 4a52 98be 5ccd b03e
000001e0: cea6 a33f f92d 4bc0 2ab5 603e 6310 e43d
000001f0: 9b7b 33bd d8ad 9f3c 6128 8cbc 097e 46bf
00000200: 50fb 19c0 e834 853f 60df 3ebd 497e 6840
00000210: 52d5 f93c e4e7 95bf 9c09 b3bf ead7 08bf
00000220: aed6 38bf efb7 5c3e bb31 25bf d597 e73f
00000230: cbf3 4f3e c21b 453f b001 b0bf 0765 d83c
00000240: 097c f23e 5a16 8f3f cf1a ae3e 07b6 9d3c
00000250: 9e92 83be 1f7a 933e b539 52bf 8cb2 343c
00000260: 9649 b43e 2128 893f 2462 2fc0 7ffd 013f
00000270: a893 dfbe 0042 d93e 3e9f 83be ce10 5a3e
00000280: 8c24 073e a2eb 28c0 856a 293f 5f53 5cbd
00000290: 11ba 7240 b0e7 b43e 5f33 de3e 9aa5 823f
000002a0: 5415 b93d 6f8f c93e a303 01bf 83aa 3a3e
000002b0: b03c 8dbf 9115 b5be 8475 cd3d ae00 603f
-0.06847578 -0.1887565 -0.09089261 0.047673017 -0.23773338 0.025370687 -0.27880424 0.22504222
-0.049398154 -0.124515444 0.09143525 -0.011858302 -0.39651757 0.9363844 -0.37382573 -0.14778647
-0.46374545 0.26789096 -1.1043516 -0.06551163 0.24106272 1.3460691 0.3176132 0.2575624
1.1565773 0.13921227 -0.14347701 -0.47585702 0.19334036 -1.1201158 -0.1824325 0.2884143
0.8998426 -0.07453891 0.592516 1.435188 0.14806177 0.094475076 -0.26860934 0.35139295
-1.3126527 0.022575106 0.06599241 1.1834153 0.18056172 0.02711864 1.2641335 0.054759014
-0.014300402 -0.057224404 0.15737648 -1.1628706 -0.34078297 0.33900672 1.2175223 -0.034175646
0.038239893 1.2249436 0.1345474 0.048989937 -0.4427981 0.6626661 -0.68375003 0.05557417
0.43778935 1.1820633 -2.6880586 0.76269174 0.6020379 -0.11901539 0.01015014 0.16194522
0.14150965 -2.3281937 0.23744404 -0.035129666 2.955685 -0.26951593 0.013440172 0.09198037
-0.27002862 -0.19003913 -0.08055355 -0.040288895 -0.24775805 -0.13978902 -0.21382017 0.26363117
-0.014756046 0.39360097 0.9035727 -0.17160904 -0.038446713 -0.74781 0.14178324 -1.0704226
-0.22851397 0.42311335 1.3764149 0.077905454 0.23840731 1.1030183 -0.025026074 0.16300553
-0.3095728 0.4552232 -1.0461683 0.2215133 0.15034309 1.1596019 -0.07023343 0.41663966
1.099296 0.25434473 0.39687258 -0.08268802 0.27634564 -0.78366256 -0.29750282 0.34531677
1.278528 -3.174681 0.21944109 0.11135938 -0.04381905 0.019492075 -0.017109098 -0.77536064
-2.405964 1.0406771 -0.046599746 3.6327078 0.030497227 -1.1711392 -1.3987308 -0.5345446
-0.72202575 0.2155454 -0.6452901 1.809321 0.20307843 0.7699548 -1.3750515 0.026415361
0.47360256 1.1178696 0.34004828 0.019251836 -0.25697798 0.28804109 -0.82119304 0.011028897
0.35212392 1.0715371 -2.740365 0.5077743 -0.4366734 0.42433167 -0.2570743 0.21295473
0.13197535 -2.639382 0.6617816 -0.053790446 3.7926066 0.35333014 0.43398568 1.0206788
0.09037271 0.39367244 -0.50396174 0.18229108 -1.1034145 -0.35368016 0.1003218 0.8750104

conv1.0.bias f4 [16]
00000000: 5c2e b93d 18e2 3340 5f0a 4d40 5ff6 5e40
00000010: 3607 5240 e8ed 3240 4e0f 5640 1ce9 443e
00000020: b06c 4c40 ba6c 3c40 3d74 4040 bf61 1c40
00000030: ca5c 5bc0 ddb6 3240 1c9a 5a40 db63 5040
0.090420455 2.8106747 3.203758 3.4837873 3.2816901 2.7957706 3.3446841 0.19229549
3.1941338 2.9441361 3.0070946 2.443466 -3.4275384 2.792411 3.415656 3.2560947

conv1.2.weight f4 [32, 16]
00000000: 2ec3 20be 9800 0b3e a35e 4bbe 694a 8b3d
00000010: 18d9 20bd 1697 11be 2225 92be fda4 7cbe
00000020: 681e 8abd 4aac 15be 90e8 e33d 5a53 6cbe
00000030: 0a20 33be 3483 87be 335e b03d d4f1 423d
00000040: 4021 783e e6c7 8f3e 0f5c b03e ecb3 0e3f
00000050: e4d7 cf3e 2ecf e53e 8894 fe3f b118 9abc
00000060: 593a 6b3e 6586 9e3e 13b8 f23e 9383 0b40
00000070: c53d 96bf 0148 d83d 18bb 0040 fdd2 f73e
00000080: cc56 eebd 1003 a83d c0e6 743c 6430 7fbe
00000090: b0fa d6bd 06ed 79be 40e7 72be 68c1 52bd
000000a0: f0f0 5bbe 7ca1 623e 382d 37be d880 31be
000000b0: cc2b 0cbe 0ccc a2bd c0c3 9fbc 7ce2 833d
000000c0: a047 15bc a804 013f 6d1f 153f c68a 3d3f
000000d0: b86e 2a3e 97fc db3e 8dc4 fc3f 4100 1f3e
000000e0: 86da 533e 3e41 ab3e c3a0 ce3e be5a 1940
000000f0: cbff a4bf 59b5 c03e c4b0 ee3f 4b9c 753e
00000100: ecba 7fbe c69a 0c3e ba66 51be 5c77 c9bd
00000110: f6f2 13be 5236 1d3e ece4 d53d c83e 23be
00000120: 5e4a 003e 5ad3 113e 60f0 d5bd 4c1b 2cbe
00000130: a848 39bd 1008 dcbd 200d 4f3d a054 53be
00000140: 988a 4f3e 74ab ff3e d249 e93e cc24 283f
00000150: 4fd2 1a3e fff9 303c 787d da3f 98a9 123d
00000160: 5bd9 8c3d 7851 923e 6dbc df3e bbe4 1440
00000170: 9690 5fbf d4bf 913e 2498 f03f 13d8 973e
00000180: e0c0 e7bc e373 6bbb 8a75 a73d 07e0 1fbf
00000190: 75fd b53d 5821 1bbc 375f 12bf ccfd 4a3e
000001a0: 15bf 98be 2db3 e2bd b3d9 6dbe 5ceb 37bf
000001b0: ef5c 023f 2321 b6be dd01 14bf f54d fcbe
000001c0: 8410 24be fe37 f33e acf6 1d3e 3d75 983e
000001d0: d6f9 903e b250 adbc f0a8 f23f b44b 95bd
000001e0: 45e1 b13d 2acd 7b3e 9085 693e fdfd 0d40
000001f0: 380b 42bf 15e4 e43e 3a67 0340 6da4 ac3e
00000200: 9075 5d3e 96aa 07be 22a7 4dbe 2852 7f3e
00000210: 88fe 093d f813 053d 5acc 3cbe 146b b23d
00000220: be54 27be a084 b1bc 601c b4bc ac26 81bd
00000230: 801b ddbd bcf5 04be d010 b4bd e241 55be
00000240: a45b 1c3e a4c7 b63d e4c7 9c3b 86ec 723e
00000250: bad9 f03d a4d9 5e3e 331e dc3f 4f88 44be
00000260: b85f 993e 78f7 a33e 046b 953e 49c0 0740
00000270: 97e3 48bf 3213 b93e dd6c 0840 77a2 0e3f
00000280: c890 53bd a827 1fbc 902c 8b3d dc98 11be
00000290: e1e7 8cbd b79d 99be 0fb5 81be a2e4 34be
000002a0: 9167 f53d 93b6 00be d2d0 223e efc8 2d3e
000002b0: 716f e4bd 0b3f 073e 499d e9bd 5f07 d0bd
000002c0: e05e 76bd 86df 8e3e d81b 833e 1450 153f
000002d0: 14f9 1f3e 054e 963e bd5d df3f c1f3 33be
000002e0: 9b99 4b3e eb2b 153f 85ac da3e 73a9 1140
000002f0: 4f75 85bf acb9 933e 6563 0340 4595 883e
00000300: 80c2 bebd c534 d43d 50dc a03e 93f1 d23e
00000310: f56c b73e 8801 cd3e b4ef f53f 979c aabd
00000320: b01c 8a3d f9d4 0c3f 858c ea3e 5f58 f43f
00000330: 4497 93bf 6202 c93e 8bf2 0440 919f 113f
00000340: c0f4 3bbc b609 49be 94a2 5d3e b45b 873d
00000350: 9d1b 81be c17a 0c3e dadb ffbd 09fc 4a3e
00000360: 3871 fe3d 5433 debd 4875 37bd 0a28 5d3e
00000370: f654 373d 6b7b 4fbe 63f7 4dbe e821 fd3d
00000380: 583d bebd 4247 613e 0d6f 9b3e c0cf 413e
00000390: d020 823e f73f f03e 2ea1 f53f 1c7f 0a3e
000003a0: abf4 f93d 415d e53e c888 c83e e92f 0a40
000003b0: c993 88bf a49f 6e3e 7aed dd3f 8657 e33e
000003c0: 6870 44be 3d58 113e ba7a d43d 9ccb 073f
000003d0: e824 cf3e 3e86 af3e 64f5 fc3f 157f fabd
000003e0: 621a af3e 1ada 483e 283a c03e 0263 0540
000003f0: 7f5d 8abf 5bd0 d13e d376 0240 4869 4c3e
-0.15699455 0.13574445 -0.1986032 0.06801302 -0.039269537 -0.14217791 -0.28543955 -0.24672313
-0.06744081 -0.14616504 0.11128342 -0.23078671 -0.1749269 -0.26467288 0.08611717 0.047593907
0.24231434 0.28082198 0.34445235 0.5574329 0.405944 0.44884628 1.9889078 -0.018810602
0.22971477 0.3096191 0.47406062 2.1799057 -1.17376 0.10560609 2.0114193 0.4840316
-0.11637649 0.08203709 0.014947593 -0.24920803 -0.104970336 -0.24406824 -0.23721027 -0.051453978
-0.21478629 0.22131914 -0.17888343 -0.17334306 -0.13688582 -0.07949075 -0.01950252 0.06439683
-0.009111315 0.5039773 0.58251077 0.74039876 0.16643798 0.42966148 1.9747483 0.1552744
0.20688829 0.33448213 0.40357026 2.3961635 -1.2890562 0.37638357 1.8647695 0.23985402
-0.24973649 0.13730916 -0.20449343 -0.09837219 -0.14448151 0.15352753 0.10444054 -0.15941918
0.12528369 0.1424078 -0.104462385 -0.16807288 -0.045235306 -0.10743725 0.050549626 -0.2063775
0.20267713 0.49935496 0.45564133 0.6568115 0.15119289 0.010801791 1.706954 0.03580627
0.06877395 0.2857778 0.43698445 2.3264606 -0.87329996 0.28466666 1.879643 0.2965704
-0.028290212 -0.0035927228 0.08176716 -0.62451214 0.08886234 -0.009468399 -0.57176536 0.19823378
-0.29833284 -0.11069331 -0.23227577 -0.71843505 0.50923055 -0.35572156 -0.57815343 -0.49278226
-0.16021925 0.47503656 0.15426129 0.29776946 0.2831561 -0.021156643 1.8957806 -0.0728983
0.08685545 0.24589983 0.22804856 2.2186272 -0.7579837 0.44705263 2.0531754 0.33719197
0.21626878 -0.13248667 -0.20083287 0.24933684 0.033690006 0.032489747 -0.18437329 0.0871183
-0.1634092 -0.021669686 -0.021986187 -0.06306204 -0.10796261 -0.12984365 -0.08792269 -0.20825914
0.15269333 0.08924797 0.004784571 0.23723039 0.11760278 0.21762711 1.7196716 -0.19192623
0.2995584 0.3202474 0.2918321 2.1211112 -0.78472275 0.36147457 2.1316445 0.5571665
-0.051651746 -0.009714045 0.06795609 -0.14218467 -0.06880165 -0.3000314 -0.2533345 -0.17665341
0.11982644 -0.12569647 0.15899971 0.16971181 -0.11154068 0.13207643 -0.11406953 -0.10157656
-0.060149074 0.2790491 0.2560718 0.58325315 0.1562236 0.293564 1.7450482 -0.17573453
0.19882815 0.5827014 0.42709747 2.2759674 -1.0426425 0.28852594 2.0529416 0.26676384
-0.09314442 0.103616275 0.31418085 0.41199932 0.35825315 0.4004023 1.9213777 -0.083306484
0.06743753 0.5501247 0.45810333 1.9089469 -1.1530538 0.3925963 2.0773036 0.56884104
-0.011471927 -0.1963261 0.2164405 0.06609288 -0.2521638 0.13718702 -0.12493105 0.19822706
0.124239385 -0.10849634 -0.044789582 0.21597305 0.04475876 -0.20261924 -0.20113902 0.12359983
-0.09289044 0.21999839 0.30358163 0.18926907 0.2541566 0.469238 1.9189813 0.13525051
0.1220487 0.4479771 0.39166856 2.1591742 -1.06701 0.23303086 1.7338097 0.44402713
-0.19183505 0.14193816 0.10374971 0.5304506 0.40457845 0.34282106 1.9762387 -0.1223127
0.34199816 0.19614449 0.3754437 2.084168 -1.0809783 0.40979275 2.0385025 0.19962037

conv1.2.bias f4 [32]
00000000: 4827 0b3d 59fe 2a40 2e53 50be 2df1 3e40
00000010: 10d8 1bbe ee99 2240 00fc fabe 98b8 2e40
00000020: 727c 6f3e d476 2540 82c4 ce3c ebdd 1940
00000030: 07bc 1b40 20a2 4bbd e1ce 3140 58b5 1340
00000040: 5282 f9bd 7a16 51bd f349 44be 84a8 2d40
00000050: 5016 87be 4cd1 583e 0453 3dbe aec8 1d40
00000060: 6027 a2bd 504a 133d d955 1840 1545 43be
00000070: cdc8 2440 1eeb 2e40 35c0 1840 fd47 1940
0.03397301 2.6717741 -0.2034423 2.9834702 -0.1521914 2.5406451 -0.49020386 2.7300167
0.23387316 2.5853777 0.025240187 2.4041698 2.4333513 -0.04971516 2.778252 2.3079433
-0.1218306 -0.051046826 -0.19168834 2.7134104 -0.2638421 0.2117359 -0.18488699 2.4653735
-0.079176664 0.03595954 2.3802397 -0.19069321 2.574756 2.7331004 2.3867314 2.3950188

conv1.5.weight f4 [8, 32]
00000000: fdde 1fbe 06a6 d23d 202c 11be c761 26be
00000010: d028 cdbc 925c 45be b58a 3abc 1702 6abe
00000020: 24d5 21bd 1ca6 1cbd 360b 013d 3b57 89bd
00000030: 9f4a 0cbe 656a 01be 97d9 8dbe 86a0 a93d
00000040: 72de 19bd b391 303c 1153 a83d f27f d4bc
00000050: 5ede 84bd 6245 c13d 454b abbd 988e bd3d
00000060: 2c0e 38bd f41e 893d 3f13 51be 6053 9e3d
00000070: 4807 1bbe 8d43 9fbd 4ac6 cabd 0054 99bd
00000080: 9fde 003d ec79 403f ad1b 173e c961 2a3f
00000090: 19ae 043e 5271 813f c0c0 ebbe 3643 983f
000000a0: 61aa e1bd e239 7c3f b76a 4abd c0ad 803f
000000b0: e37f 4d3f 2ab4 31bd 75a7 713f 9792 423f
000000c0: 6bc5 2d3e 641d 08be df95 cdbd e134 4a3f
000000d0: 1468 b0bc 3e05 b13d 5191 a53d f015 2a3f
000000e0: 989d 8d3d 42be 13be 3b20 813f 5d17 9a3d
000000f0: 0097 8a3f bc71 393f e1f8 5a3f b4e3 313f
00000100: d6fd bcbd d879 393f 5cd3 863d c616 203f
00000110: fee9 96bd 5e34 523f 4cfd 38bf e6ae 593f
00000120: 1042 5a3c ef5d 553f dc7c ebbb 8144 3a3f
00000130: e08a 2e3f 4f75 e3bd 320b 603f 3a43 413f
00000140: 602d d1bd ba57 9ebd 3da8 d7bd 5f0f 143f
00000150: a379 ffbd 8042 a43c a42e 0bbe b736 4a3f
00000160: 6fdd 033e a88e 023d c118 7f3f e5b1 b5bd
00000170: 9ed0 553f 386d 493f d633 5a3f 1c85 423f
00000180: 9ce8 e03d 94e2 04bd e021 b63b ba28 713d
00000190: 9894 0d3d 8d20 4f3d 61c0 c63b 012b 30be
000001a0: 491c 343e c217 27be 2d7c 32be 1efd 91bd
000001b0: 009e 013c 3a3b a43c a186 2ebe 6cb8 e0bd
000001c0: 7933 933d f2f6 033d fbd5 f43d 74b7 24be
000001d0: 5cee 423d 0425 0cbe 3834 1d3d 6de5 3bbe
000001e0: b517 303e 26fd a33d 097f d8bd ed70 37be
000001f0: bce8 1dbe 1b0f 33be d78f 02be db34 b4bd
00000200: 6243 7dbd aa7f c0bd 2979 93bd f052 16be
00000210: 7e3f f13d 96a0 abbd 6513 98bd 8985 59bd
00000220: 1880 64bd 604a a5bd 45e5 31be d1de 01be
00000230: f3e1 fdbd a229 033e 0f8d 6bbc 8bd3 5b3d
00000240: 8e48 fc3d e5fc 2ebe 4322 be3d f8e1 5ebc
00000250: 0deb d4bd 0776 c9bd 9ce2 da3d 7658 f2bd
00000260: fb3e 2e3e e4e9 cbbd 5607 ecbd d80e 033e
00000270: b245 54be 337e 1ebd c93e b1bd 22b3 05be
00000280: bb06 003d 6f55 133f 2077 b1bd b52f 443f
00000290: 0810 9dbc c538 553f a73b 3bbf 42a5 8a3f
000002a0: 803c 11bc 0533 7c3f b5af 5bbb 572b 473f
000002b0: e49e 383f 26cc a3bd f49d 453f cc90 5e3f
000002c0: 9b85 e13d d7b4 e5bd 8076 5c3d 865c 5d3f
000002d0: e4b0 263e f6dd c13d d27c 063e 4801 523f
000002e0: aeeb 943d adc6 2abe 69a4 4f3f d0d7 8abd
000002f0: cb56 4e3f 4ab9 423f 8f01 363f e6b0 5b3f
00000300: 5ae4 ecbd b8d4 103d 4401 863d 2d81 8dbd
00000310: ea90 f73d e799 ad3d 7532 5bbd 1954 1ebe
00000320: f0f3 283c 83b7 31bd 6a3e eabd 6f14 54be
00000330: 158c 41bd 41eb cebd d0a9 8cbd cdb2 19be
00000340: 77b4 0b3d 60a4 9cbd c265 013e b958 2fbe
00000350: 3d6d 54bc 5589 1bbe 78e1 393c 0ff6 6ebd
00000360: dfd6 10be dfda 343e d6ff 2cbe c4fe 11be
00000370: 37b5 5dbe d86b 0fbe 5d10 18be ba3d b2bd
00000380: abab cdbd 3bb3 773f d03b 56bc d66f 783f
00000390: 4045 dabc 2d76 7e3f 6f4b 20bf beb1 9f3f
000003a0: b95d ddbd f25e 863f b0e5 95bd c5d7 653f
000003b0: b933 393f aeb6 863d b7dc 823f 1f38 743f
000003c0: 28e0 94bc 8a60 d83d 14bf 9d3c 5687 393f
000003d0: e00a 8d3d d433 3bbd 9472 ddbd a905 533f
000003e0: befb a03d 2a79 7fbd f813 8f3f 0c72 31be
000003f0: 84e1 8b3f b222 6a3f 6e65 5f3f 7718 733f
-0.15612407 0.10285573 -0.14176989 -0.16248237 -0.025043875 -0.19273594 -0.011385609 -0.2285236
-0.039509907 -0.03824435 0.031504832 -0.06706091 -0.1370034 -0.12638243 -0.2770507 0.082825705
-0.037565656 0.010776925 0.08218969 -0.025939915 -0.06487726 0.09437062 -0.08363966 0.09255713
-0.04493539 0.06695357 -0.20417498 0.07730746 -0.15139496 -0.07776556 -0.09901102 -0.07486725
0.031462308 0.7518604 0.14756651 0.6655546 0.12957038 1.0112708 -0.46045494 1.1895511
-0.11018825 0.9852582 -0.049418177 1.0053024 0.80273265 -0.04338471 0.94396144 0.7600493
0.1696984 -0.13292462 -0.10038351 0.78986937 -0.021534003 0.08643578 0.080843575 0.66439724
0.06914824 -0.14428046 1.0087961 0.075239874 1.0827332 0.7243917 0.8553601 0.6948807
-0.09228103 0.72451544 0.06583282 0.6253475 -0.07368849 0.82111156 -0.722615 0.850325
0.013321415 0.83346456 -0.0071865153 0.7276078 0.68180656 -0.11106359 0.8751708 0.75493205
-0.10213733 -0.07731576 -0.10530136 0.57835954 -0.12474372 0.02005124 -0.1359201 0.7898974
0.12877439 0.03187433 0.99647146 -0.08871821 0.8352145 0.7868228 0.85235345 0.7598436
0.10981867 -0.032442644 0.0055582374 0.05887673 0.03456554 0.050568152 0.006065414 -0.17203905
0.17588915 -0.16317657 -0.17430182 -0.071283564 0.007911205 0.020047773 -0.17043544 -0.10972676
0.07187552 0.032217927 0.11954876 -0.16085607 0.0475906 -0.13685995 0.038379878 -0.18349238
0.17196544 0.080072686 -0.10571105 -0.17914172 -0.15420812 -0.17486231 -0.12750183 -0.08799144
-0.06183184 -0.0939935 -0.07200844 -0.14680076 0.11779688 -0.08380239 -0.07425574 -0.053105865
-0.055786222 -0.080708265 -0.17372616 -0.12682654 -0.12396612 0.1280885 -0.014376893 0.05366854
0.12318526 -0.17088659 0.09283879 -0.01360368 -0.10396395 -0.09836965 0.106877536 -0.11833279
0.17016213 -0.099567205 -0.11524837 0.12798631 -0.20729712 -0.03869457 -0.086545534 -0.13056615
0.03125642 0.57552236 -0.086652994 0.76635295 -0.019172683 0.8328975 -0.731379 1.0831683
-0.008864522 0.9851535 -0.0033521478 0.77800506 0.7211745 -0.079979226 0.7719414 0.8693969
0.11011811 -0.11216133 0.053823948 0.86469305 0.16278416 0.09466164 0.13133553 0.82033205
0.07271515 -0.16677351 0.81110245 -0.06779444 0.80601186 0.7606398 0.7109613 0.858168
-0.11566992 0.035359114 0.0654321 -0.06909404 0.12088187 0.0847662 -0.053514916 -0.15461768
0.0103120655 -0.0433879 -0.11437686 -0.2071092 -0.047252733 -0.10103465 -0.06868327 -0.15009613
0.03410765 -0.076485395 0.12636474 -0.17123689 -0.012965498 -0.15189107 0.01134526 -0.05834013
-0.14144467 0.17661618 -0.16894469 -0.14257342 -0.21651159 -0.14005983 -0.14849992 -0.0870318
-0.10042509 0.9675786 -0.013075784 0.9704565 -0.02664435 0.9939907 -0.626151 1.2476118
-0.10808892 1.0497725 -0.073192 0.89782363 0.7234455 0.06577812 1.0223607 0.95398134
-0.018173292 0.10565288 0.019256152 0.7247213 0.0688684 -0.045703724 -0.1081287 0.8243051
0.07860516 -0.06237141 1.1177969 -0.17328662 1.0928197 0.9145919 0.87264144 0.94959205

conv1.5.bias f4 [8]
00000000: 06cf 013e 04bd 5640 dc2e 3540 279a e33b
00000010: e049 53bd 3b78 4b40 3d76 df3d d102 7040
0.1267663 3.3552866 2.830985 0.0069458666 -0.051584125 3.1792133 0.10911224 3.750172

conv1.7.weight f4 [1, 8]
00000000: 0cc2 a73b 20bb 753f b0f6 903f 910e 19bd
00000010: 2763 9fbe b0a0 773f 06bd 7ebd 6440 7d3f
0.0051195677 0.95988655 1.1325283 -0.037367407 -0.31130335 0.96729565 -0.062191986 0.9892638
