neuralNetwork/dl.pth (torch, 6607 bytes, 7 tensors)

conv1.0.weight f4 [16, 12]
000000 4c d0 ef 3f 25 47 47 3f a7 57 10 40 cd 89 12 3d
       1.8735442 0.7784293 2.2553499 0.03577595
000010 ca 91 41 be 3b ad d7 3f 73 fb 2f bf 15 8b 97 3f
       -0.1890327 1.6849741 -0.68743056 1.183932
000020 16 9f 49 bf 41 76 0b 3d a9 b6 01 3d 1b 70 a8 3b
       -0.7875837 0.034048323 0.03166834 0.005140317
000030 b2 59 d5 c0 eb 15 69 3e f1 3d 8b c0 09 09 01 3e
       -6.667199 0.22762267 -4.351311 0.12601103
000040 e8 d9 97 3d a7 6f 0c 3f 22 0f 9d 3f bd 10 4a c0
       0.07414609 0.5485787 1.2270243 -3.1572716
000050 4f a2 4e 3f 6b 6a 64 bd a3 d6 50 bd a9 d8 c6 b9
       0.80716413 -0.05576555 -0.050985944 -0.00037926927
000060 2a d2 e8 bf 4d 59 90 3f b5 22 82 be b3 4e 8e be
       -1.8189137 1.1277252 -0.25417104 -0.27794418
000070 05 50 6c be 8e 64 07 40 69 aa 6b bf 2b c6 da be
       -0.230774 2.1155124 -0.920569 -0.42729315
000080 79 59 94 3e 45 4c 82 bd ea 3e 62 bd 61 d6 4a 3a
       0.28974512 -0.063622035 -0.05523578 0.00077376334
000090 af fc be c0 df 36 91 3d 05 03 1e c0 24 ba 39 3e
       -5.968345 0.07090544 -2.4689343 0.18137413
0000a0 08 48 d4 bd e3 46 e2 3f 7e da 84 bf 0f d0 34 bf
       -0.10365301 1.7677883 -1.0379179 -0.7062997
0000b0 dd a0 61 3f f1 d0 9b bd 2b a3 4c bd 1b d0 92 ba
       0.8813608 -0.07608212 -0.049960297 -0.0011200936
0000c0 91 26 49 3f 1f ac 99 3e 46 d2 e5 3f d0 e1 d0 be
       0.7857447 0.3001413 1.7954795 -0.4079728
0000d0 21 2a 99 3f fd 1c 48 be 56 5c 33 bd a6 da 8b bf
       1.1965982 -0.19542308 -0.04378923 -1.0926101
0000e0 09 bb 3d 3f 28 55 e7 bd f0 ec 1e bc ac 74 99 bb
       0.7411352 -0.11295539 -0.009700045 -0.004683098
0000f0 2b 04 86 be 2a 29 97 3e f9 92 53 40 d4 3d 0a bf
       -0.26175055 0.29523593 3.3058455 -0.5400059
000100 f6 38 d2 3e 6b 73 36 bf 9b 36 83 be 3b 9c cb bd
       0.41059083 -0.71269864 -0.25627598 -0.09941908
000110 cc 2d 0d 3e be 17 0e 3d 4e 50 30 bd 41 31 99 3b
       0.13787001 0.03469061 -0.043045335 0.004675061
000120 f9 e2 2c bf 72 bf 03 bf 8f 68 81 3f 72 47 ae 3f
       -0.6753383 -0.51464 1.0110034 1.3615553
000130 03 2a 27 be f4 28 00 3f f6 51 b8 3f 67 6b 18 bf
       -0.1632462 0.5006249 1.4400012 -0.5953888
000140 84 70 3f 3c 19 da d6 bd 56 52 39 bd 79 93 97 bb
       0.011684541 -0.104908176 -0.045244537 -0.0046257344
000150 9f 6a 61 40 d4 c8 a2 3e e0 0f 50 40 6a 0f c5 be
       3.5221326 0.31793845 3.250969 -0.38488322
000160 bf 56 cd bd 13 2a c5 3d d5 fb 46 bf 90 5a c9 3f
       -0.10026311 0.09627166 -0.77728015 1.5730762
000170 f5 b5 dc be 23 14 40 3e d8 6a 5b 3e a2 3e 76 3a
       -0.43107572 0.18757682 0.21427476 0.0009393488
000180 5e 90 ac 3d 0d 94 c6 bf d0 a2 f3 40 68 3e 8c 3f
       0.08425973 -1.5513932 7.6136246 1.0956545
000190 bc 73 2d c0 65 90 be c0 32 37 0d c0 52 14 19 40
       -2.7101889 -5.9551263 -2.2064939 2.3918653
0001a0 c2 8b 2e bf 99 12 8b 3e 21 91 b6 bf 57 ae 90 3e
       -0.68182003 0.27162626 -1.426304 0.2825801
0001b0 bf 01 46 c0 14 50 b3 3e 11 12 54 c0 14 9f 8b be
       -3.0938566 0.35022032 -3.3136027 -0.27269804
0001c0 51 83 fb bd d4 20 89 3f 87 e8 6e 3c 49 75 b0 bf
       -0.12280906 1.0713143 0.014581806 -1.3785793
0001d0 08 03 1d 3f bf a4 e9 bb 9b bb 4f bd 3a aa 25 3e
       0.6133275 -0.007130235 -0.050716024 0.16178218
0001e0 2d 60 66 bf 28 34 b7 3e 00 48 a5 c0 f8 a5 0f 3f
       -0.899905 0.3578198 -5.165039 0.56112623
0001f0 b1 bb af be 78 17 6b bf 7d 4c 2e c0 b5 95 77 c0
       -0.34322885 -0.91832685 -2.7234185 -3.8685124
000200 49 ed a5 3e 4c b6 32 be 37 c5 99 3f 12 e5 73 bb
       0.32407597 -0.17452353 1.201331 -0.0037215394
000210 ca 3d a1 bf 06 e9 a1 3f ee 84 0d 3f 65 c2 0f be
       -1.2596982 1.2649238 0.5528096 -0.14039
000220 f4 c1 82 3f 2a 9e 4f bf 69 96 e9 3e 9c 09 1b c0
       1.021544 -0.81100714 0.45622566 -2.4224615
000230 ae 2b 31 3e 3a 70 af bd e7 c3 86 3e b9 b3 0c 3d
       0.17301819 -0.085663274 0.26321337 0.034351084
000240 99 b3 9e be 79 31 34 3f f8 dd bd 3f 9a 1f aa be
       -0.30996397 0.7038799 1.4833364 -0.33227235
000250 44 36 da 3e f3 f1 df be 12 20 9f be b3 3a 8c bf
       0.42619526 -0.4373928 -0.31079155 -1.0955414
000260 c8 ba 00 bd 02 01 c8 38 9c 91 d0 3c eb 06 96 3b
       -0.03142813 9.536931e-05 0.025460057 0.0045784614
000270 64 1f ca 3e b9 f5 17 3f 7e f9 07 40 fd 4f 91 bf
       0.39477074 0.5935932 2.1246028 -1.1352535
000280 47 d1 37 bd ac 9c 2e bf 30 8f 44 bf 51 69 60 c0
       -0.044877317 -0.6820781 -0.76780987 -3.506428
000290 f4 95 8a bf a5 b6 94 3e ac 1d 3f 3d 5f 84 33 3e
       -1.0827012 0.29045597 0.046659157 0.17530964
0002a0 08 6c 29 c0 c6 b8 20 3f 02 d3 cc 3f bc 10 1c be
       -2.6472187 0.6278194 1.6001894 -0.15240759
0002b0 2d 1e 86 3c 1d 1d de 3e c7 19 87 be 52 9d 55 bf
       0.01637181 0.43381587 -0.26386854 -0.83443177
0002c0 b4 6d 3d 3e 59 79 02 bd 91 52 f1 3b 2f 29 6e 3b
       0.1849888 -0.031854007 0.007364579 0.0036340465
0002d0 38 9d 57 3f c3 36 1c 3f bb a8 36 40 5d 15 05 bf
       0.8422427 0.6102106 2.8540485 -0.5198572
0002e0 98 ba 40 3e 8a 96 95 3e 92 d0 eb be 21 51 82 bf
       0.1882118 0.29216415 -0.46057564 -1.0181009
0002f0 71 35 ef bd d3 d8 41 3e 2d 75 05 3d 7b 05 67 3b
       -0.11680115 0.18930368 0.03258245 0.003525107

conv1.0.bias f4 [16]
000000 c2 ea f3 40 93 e3 ab 40 b9 59 ea 40 13 62 ba 40
       7.622407 5.37153 7.3234525 5.824472
000010 19 65 c0 40 15 46 23 41 b1 d9 15 41 c4 7d 1c 41
       6.012341 10.20461 9.365647 9.7807045
000020 ec ea fc c0 67 02 a1 40 13 45 7e 40 00 29 ae 40
       -7.903677 5.0315433 3.972966 5.442505
000030 c6 72 39 41 7e 50 84 40 89 3a 25 41 b4 05 06 41
       11.590521 4.1348257 10.326791 8.376392

conv1.2.weight f4 [32, 16]
000000 1e 22 af 3e 5a 44 7f 3f d3 d3 fd 3f 2a fc 43 3f
       0.34205717 0.9971367 1.9830269 0.76556647
000010 73 da 3a 3d 03 74 fa bf 42 59 7f 3f 39 6d bc bf
       0.045618486 -1.9566654 0.9974557 -1.4720832
000020 ed ad 88 bf 1d 6d 19 be af 30 94 3f 2d 6e 0a 3f
       -1.0678078 -0.1498303 1.1577357 0.54074365
000030 cc 5b 69 bf 69 33 8f 3e b2 a4 ef 3f df 65 90 bf
       -0.91155696 0.2796891 1.8722136 -1.1281089
000040 04 f0 69 bd c8 90 de 3f 79 3f 20 bf 7a 71 27 40
       -0.057113662 1.7387934 -0.6259685 2.616301
000050 39 b5 35 be 44 92 d1 3e 79 23 cd 3e 7b 7d 35 3e
       -0.17744912 0.40931904 0.40066126 0.17723648
000060 7d b5 3c be 64 ff e6 3e d6 82 24 3f 22 ff 5d be
       -0.18428607 0.45116723 0.6426214 -0.21679357
000070 db c6 3b 3f ca 0c 8a be 6c 16 71 3f f5 91 02 be
       0.73350304 -0.26962882 0.9417484 -0.1275099
000080 05 55 2b 3e 54 ed 05 40 43 ae ad 3d 5f 60 0f 40
       0.16731651 2.0926104 0.084805034 2.240257
000090 04 1b 83 3c e8 23 d5 3e 2f 2a 77 3f cc 96 8f 3e
       0.016004093 0.41628957 0.9654874 0.28044736
0000a0 2d 0d 3e be 36 07 6d 3d 31 f6 63 3f 75 e2 1a 3e
       -0.18559714 0.057868205 0.89047533 0.15125449
0000b0 a6 0d 66 3f 8b 66 1c 3e 82 99 58 3f 49 32 f3 bd
       0.89864576 0.15273492 0.84609234 -0.118748255
0000c0 f3 ce d4 3d 60 14 fe 3f 6a bc 2e 3e 82 66 09 40
       0.10391035 1.9849968 0.17064062 2.1468816
0000d0 62 7c 65 3d 80 dd a6 3e 24 29 71 3f 87 71 01 3e
       0.056026824 0.32590866 0.942034 0.12640963
0000e0 2e d4 14 be fd 9c 12 3d 63 b4 68 3f 72 d0 1c 3e
       -0.14534065 0.035794247 0.9090025 0.1531389
0000f0 89 fa 5c 3f 6a c0 1e 3e e5 c0 45 3f 0a df ba 3d
       0.86319786 0.15503088 0.7724746 0.091245726
000100 ee 32 2a 3e 89 96 f0 3f ed a5 5a 3e 39 69 06 40
       0.1662099 1.879594 0.21352358 2.1001723
000110 9b 5c 51 3e 9c 81 5c 3e 62 94 28 3f b5 05 0b bd
       0.20445482 0.21533817 0.65851414 -0.03394099
000120 00 09 53 be c3 a8 98 3e 11 f0 4d 3f 51 7a d1 bd
       -0.20608902 0.29816255 0.8044444 -0.10228408
000130 b5 5c 19 3f 1d 0c a0 3c 57 b2 21 3f f2 71 24 3e
       0.59907085 0.019537026 0.6316275 0.16059092
000140 09 38 3d 3e 71 be ff 3f ee 1e 29 3e c2 ec 04 40
       0.18478407 1.9979993 0.16515705 2.0769506
000150 d1 67 89 3d 4d 86 ce 3e 47 85 76 3f e8 99 7c 3e
       0.067092545 0.40336838 0.96297115 0.24668086
000160 02 f6 62 be 47 11 4d 3e 4f da 50 3f 12 e1 9a bc
       -0.22164157 0.20026122 0.8158311 -0.01890615
000170 44 dc 52 3f fa ab ef 3d d0 93 39 3f 47 ef e6 bd
       0.8236735 0.11702724 0.7249117 -0.11276107
000180 d1 a9 a8 3f f1 17 2b 3c 4f 98 49 3f c7 66 96 3f
       1.3176824 0.01044272 0.7874803 1.1750115
000190 6a 3c 70 3d 80 c3 c7 bd fb e5 a4 bf e9 d3 b5 3b
       0.058651365 -0.097540855 -1.2882684 0.0055489433
0001a0 eb 6a d7 bf 28 69 46 40 57 bc 87 3e 0c 49 59 bf
       -1.6829504 3.1001682 0.2651088 -0.84877086
0001b0 e6 22 10 be f0 23 af c0 55 31 ac 3f 9d 47 25 3d
       -0.14075813 -5.473137 1.3452555 0.0403515
0001c0 09 34 7c 3e 94 e4 fd 3f c2 3e 86 3e 92 45 0e 40
       0.24629225 1.9835382 0.26219755 2.2229962
0001d0 76 f6 9b 3e 3b 79 75 3e 8d 4a 8e 3f 47 96 6d 3e
       0.30461472 0.23972027 1.1116501 0.23201858
0001e0 4a b2 4e be dd 7a fa 3c 22 51 9d 3f 00 78 f3 3d
       -0.201852 0.030576164 1.2290385 0.118881226
0001f0 1c 9c 76 3f d2 18 5b 3e 5c ca 5b 3f d4 8d eb 3c
       0.96331954 0.21396187 0.8585565 0.028754152
000200 13 2d 07 bd c2 b5 dd 3f c6 60 67 be 18 79 03 40
       -0.03300197 1.7321093 -0.2259551 2.054266
000210 35 04 f7 bd b4 80 b5 3e f3 cd fe 3e 61 c4 ad 3c
       -0.12061349 0.35449755 0.49766502 0.021211805
000220 70 46 e2 bc 74 a7 0d 3d 1b 3a 09 3f ce de d3 bd
       -0.027621478 0.034583524 0.53604287 -0.10345231
000230 96 f7 3f 3f 54 d8 cd bc 4b ac 69 3f cc e4 9b 3d
       0.7498716 -0.025127567 0.91278523 0.07611999
000240 c8 2b 4d bf ae a9 f7 c0 ba 71 f2 be 68 c9 01 c1
       -0.8014493 -7.739463 -0.4735239 -8.111671
000250 81 9b 52 c0 93 64 1d bf 0f ff f3 c0 43 59 c2 be
       -3.2907412 -0.6148159 -7.624885 -0.37958726
000260 5d 8b 65 3f 89 b3 f3 3e 8e 3d 2f c1 2c 80 61 c0
       0.89665776 0.47597912 -10.952528 -3.523448
000270 37 48 6a 3f 90 2c 2c 3f 1a 27 67 c0 ef 38 dc bf
       0.9151644 0.67255497 -3.6117616 -1.7204875
000280 2d e6 53 3e d3 f1 e7 3f 78 7f 48 3e 49 62 0e 40
       0.20693274 1.8120674 0.19579875 2.2247488
000290 b3 a3 46 3d 3c 07 f0 3e 56 9a 60 3f 67 a8 8f 3d
       0.04849596 0.4688052 0.877355 0.07014542
0002a0 f8 ca 17 be 48 a5 e7 3c f9 92 63 3f 4a e8 ca bb
       -0.1482352 0.028277054 0.8889614 -0.006192242
0002b0 18 a3 52 3f c9 b5 36 3e 86 0e 68 3f 51 e6 20 3d
       0.8228011 0.17842783 0.9064716 0.039282147
0002c0 5b 41 3f bf 45 e8 04 c1 0b d5 9a bf e8 dd 04 c1
       -0.747091 -8.306706 -1.2096266 -8.304176
0002d0 16 d7 5c c0 91 a7 8d be 5c 4d 0a c1 22 de 07 3f
       -3.4506278 -0.27666906 -8.643887 0.5307332
0002e0 ab ec 97 3f d4 c6 f3 3d 1a 91 36 c1 e6 31 60 c0
       1.18691 0.11903158 -11.410425 -3.5030456
0002f0 d7 48 6c 3f c9 89 21 3f 79 6e 81 c0 69 d4 b9 bf
       0.92298645 0.6310087 -4.0447354 -1.4517947
000300 a6 fb 96 bb 3e 52 2f be d7 f8 09 3d 2c af 8f bb
       -0.0046076356 -0.17121217 0.033684578 -0.004384896
000310 48 d1 a8 be e9 f1 05 be 8c df 63 3d f2 62 20 3d
       -0.3297217 -0.13080563 0.055633113 0.03915686
000320 6c bc 00 be b0 6a cf 3c 28 6f 0b be 62 5f 6e bc
       -0.12571877 0.025319427 -0.13616621 -0.014549108
000330 85 ac 16 3e 42 f4 86 3d 70 43 f6 be eb 96 a1 be
       0.14714248 0.06589557 -0.48098326 -0.31560454
000340 aa 64 73 3e 59 3b f5 3f f1 e3 c9 3e 6c be 06 40
       0.23768869 1.9158736 0.39431718 2.1053724
000350 d3 01 90 3e 81 41 ee 3d 99 bc 86 3f ba 04 50 3e
       0.28126392 0.11633588 1.0526305 0.20314303
000360 08 d8 0c be 04 c2 7d bd 4f 1c 8f 3f a1 ea 80 3e
       -0.13754284 -0.061952606 1.1180514 0.25179008
000370 e9 e6 4e 3f 89 b6 37 3e d4 7d 80 3f c4 10 08 3e
       0.8082109 0.17940725 1.00384 0.13287646
000380 99 0d cc bd d8 b1 e9 3f 96 68 de be 51 96 15 40
       -0.09963531 1.8257399 -0.43439168 2.3372996
000390 72 7e 9f 3d 29 fe 67 3e d2 bc 1c 3f bd ce 22 3e
       0.077877894 0.22655548 0.61225617 0.15899177
0003a0 54 20 40 be 8e cb 88 3e 96 7f 68 3f fc 33 95 be
       -0.18762332 0.267178 0.9081968 -0.29141223
0003b0 71 4b 28 3f 27 17 ac bd 5a 2f 91 3f ed c3 aa bd
       0.65740114 -0.084028535 1.1342576 -0.08338151
0003c0 c7 4c 05 3c 2d 75 e3 3f d0 c3 9d bd d4 03 0f 40
       0.008135981 1.7770134 -0.07703364 2.2346087
0003d0 0b 0d 38 bd 26 14 95 3e 99 85 39 3f 2f 7e f5 3d
       -0.044934314 0.29116935 0.7246948 0.11986958
0003e0 03 37 1c be 55 7e d6 3d b0 70 40 3f ff ac 3b 3e
       -0.1525536 0.10473315 0.7517195 0.18327712
0003f0 1c 71 32 3f 5e 79 ab 3d d6 e5 88 3f 90 8e 98 3d
       0.6970384 0.08372758 1.069514 0.07449067

conv1.2.bias f4 [32]
000000 ae ff 17 c0 0c ba 06 41 58 05 17 41 dc 7a 15 41
       -2.3749804 8.420422 9.438805 9.342495
000010 b3 0b 17 41 53 b8 12 41 cc 6e 1f 40 27 dd 13 41
       9.440356 9.170001 2.4911375 9.241492
000020 ab 0d 0e 41 fd aa ac 3f 49 7d 11 41 e8 04 ff 3f
       8.878337 1.3489681 9.093087 1.9923372
000030 3e f7 e5 bc 13 74 0f 41 c6 92 10 41 51 4b 13 41
       -0.028071996 8.965838 9.035833 9.205888
000040 50 61 14 41 04 f9 14 41 de b6 94 c0 ca 6a 0d 41
       9.273758 9.310795 -4.6473227 8.838572
000050 2f ea 03 41 c5 2a 0f 41 a9 4a 14 41 9e 04 12 41
       8.244674 8.947942 9.268228 9.126127
000060 36 bb 23 c0 c3 fa 12 41 c7 01 14 41 84 0e 9f bb
       -2.5583014 9.186221 9.250434 -0.0048540253
000070 a1 a5 1c 41 38 90 16 41 fc c6 16 41 55 ab dc c0
       9.790437 9.41021 9.42358 -6.8959146

conv1.5.weight f4 [8, 32]
000000 fc af 12 3e 2f 7a bf bf 25 9e 0f c0 68 c7 fe bf
       0.14324945 -1.4959162 -2.2440274 -1.9904604
000010 1e b4 f9 bf 81 75 27 c0 80 bd 24 be a3 7e 4b c0
       -1.9508092 -2.6165469 -0.16087914 -3.1796043
000020 5e e2 2f be 2b f9 a2 3e 24 24 23 c0 d4 d4 89 3e
       -0.17176196 0.31830725 -2.5490808 0.26920187
000030 d2 02 9c bd db 7c 3b c0 6f bf a0 bf 68 cb b8 bf
       -0.076177254 -2.9294956 -1.2558421 -1.4437075
000040 88 29 3a c0 a9 f8 73 be dd 91 2a bf 32 b4 77 bf
       -2.9087849 -0.23825325 -0.6662882 -0.9675933
000050 7f fc 51 bf d6 f6 25 c0 61 41 f7 3e 1e 87 1f c0
       -0.82025903 -2.5931907 0.48292068 -2.492622
000060 c8 2d 34 be bf b0 20 3f 22 19 2d c0 0a ab cd 3d
       -0.17595589 0.62769693 -2.704659 0.10042389
000070 d7 12 52 3f 5a 37 91 3d 14 0a 17 c0 85 ac ec 3c
       0.8206 0.070906356 -2.3599901 0.028890857
000080 56 7f 27 be 2c a1 d9 bf e6 85 34 c0 fa 0f 1d c0
       -0.16357169 -1.7002311 -2.8206725 -2.4541001
000090 c6 0c 05 c0 12 e0 4b c0 40 5e df bd 8d 7a 6e c0
       -2.0789046 -3.1855512 -0.10906649 -3.72623
0000a0 d2 9f 9e be 9c 1f e8 3e 80 00 40 c0 cb 38 a3 3e
       -0.30981308 0.45336616 -3.0000305 0.31879267
0000b0 0d c7 5b be 59 97 5f c0 3c 09 c8 bf 5b 45 e9 bf
       -0.2146265 -3.4936125 -1.5627818 -1.8224291
0000c0 37 c9 55 c0 96 4f 9a be 8d 4e 1a bf 1c 18 97 bf
       -3.3404062 -0.30138844 -0.6027611 -1.1804233
0000d0 c8 54 62 bf 47 f4 40 c0 0b f6 9a 3e bc 02 45 c0
       -0.88410616 -3.0149095 0.3026584 -3.078292
0000e0 d8 17 7b 3d 85 40 0d 3f 7c 09 51 c0 1c f0 0f 3e
       0.061302036 0.55176574 -3.2662039 0.14056438
0000f0 92 70 56 3f 9a 6a 20 be d3 5c 35 c0 53 c0 3f 3c
       0.8376552 -0.15665665 -2.8337905 0.0117035685
000100 47 6f 06 3e cf c4 d4 bf 70 ef 2b c0 32 e8 15 c0
       0.13128386 -1.6622561 -2.686489 -2.342297
000110 a7 b7 0a c0 72 a1 47 c0 38 ab 00 3e dd 68 62 c0
       -2.1674592 -3.1192288 0.12565315 -3.5376503
000120 25 e8 37 be 07 15 9f 3e 93 c2 3a c0 cf f0 c6 3e
       -0.1795965 0.3107073 -2.9181259 0.38855597
000130 45 b2 18 be 1f 2f 4b c0 86 54 b3 bf 86 13 e1 bf
       -0.14911754 -3.174751 -1.401017 -1.7584083
000140 6b 2a 47 c0 dc dc ee be 37 6a f9 be 78 58 a8 bf
       -3.111964 -0.46652877 -0.48713848 -1.3151999
000150 2b 80 67 bf b1 24 3e c0 39 77 bb 3e ce d0 2a c0
       -0.90429944 -2.9709895 0.36614397 -2.6689944
000160 26 db 42 be 6a 20 da 3e d8 19 48 c0 eb 37 31 3e
       -0.19028911 0.42602855 -3.1265774 0.17306487
000170 08 8a 5c 3f a7 31 80 be e7 a5 2e c0 6a 16 3c 3c
       0.8614812 -0.25037882 -2.7288759 0.011479953
000180 38 ef 5e c0 b0 a1 c3 3f f7 eb 24 3f 33 6c 3e 3f
       -3.4833508 1.5283718 0.64422554 0.7438385
000190 63 9b 1a 3f d7 e3 0f 3f 64 1c 02 41 71 09 44 3f
       0.6039335 0.5620703 8.131931 0.76576906
0001a0 a3 4f 51 3f b7 f9 7a 3e 57 ba 00 3f c7 97 9e 3e
       0.8176214 0.24509321 0.5028433 0.30975172
0001b0 05 06 56 bf 25 20 1f 3f 0b dc 99 3f 21 45 03 3f
       -0.83602935 0.62158424 1.2020277 0.5127736
0001c0 d3 1a bf 3e 8b 11 16 3f 75 2a c8 bf c9 d0 bf 3f
       0.37325153 0.5862052 -1.5637957 1.4985591
0001d0 59 50 e4 3f 30 f9 fd 3e 40 05 52 3f 29 8b 4b 3f
       1.783702 0.49604177 0.8203926 0.79509217
0001e0 44 9c cc c0 06 49 41 3f b5 bb 16 3f 9e a7 a3 3d
       -6.3940754 0.7550205 0.5888017 0.07990955
0001f0 5e 0b 3a 3f 8a 1d 7f 3f 7a 15 d8 3e a5 b7 ac 3e
       0.72673595 0.9965445 0.42203885 0.3373386
000200 d0 1f 54 c0 34 2a e0 3f 8e 4c 87 3f 37 f3 6b 3f
       -3.3144417 1.7512879 1.0570238 0.9216799
000210 e5 27 67 3f aa ff 5e 3f b3 c6 03 41 10 54 5a 3f
       0.9029525 0.8710886 8.236011 0.8528452
000220 cc 5c a7 3f 42 87 a7 3e d4 87 79 3f a7 eb 7e 3e
       1.3075194 0.3272038 0.9747288 0.24894582
000230 bb 39 a9 bf 72 4c 5c 3f 07 e1 cc 3f 1f 7d 85 3f
       -1.3220743 0.86054146 1.6006173 1.0428809
000240 f4 af 64 3f df f4 44 3f b3 68 a5 bf 77 0a f1 3f
       0.89330983 0.76936144 -1.2922577 1.8831319
000250 f3 96 02 40 6a 67 45 3f 58 b9 47 3f eb d9 3b 3f
       2.0404632 0.7711092 0.7801719 0.7337939
000260 6f 0b cd c0 36 ba 8e 3f 89 34 74 3f d4 70 67 3e
       -6.4076457 1.1150577 0.9539266 0.22601634
000270 38 94 6b 3f 33 1f 78 3f 02 2c 57 3f 69 c4 91 3e
       0.9202304 0.96922606 0.84051526 0.28470162
000280 a5 f0 d1 c0 ea a5 87 3f 74 61 a2 bd e9 74 4c 3c
       -6.5606256 1.0597508 -0.07928744 0.012479045
000290 a2 00 ed 3d a3 05 bb 3c ec bd 07 41 e6 95 56 3b
       0.11572386 0.022829836 8.483868 0.0032743155
0002a0 cd 55 ed 3e 46 1a 92 bb 3f 57 d9 3d 1d a0 21 3b
       0.46354523 -0.0044586984 0.10612344 0.0024662085
0002b0 ef 2a fc bd 14 50 09 be 41 7f be 3e 34 d4 24 3c
       -0.123128764 -0.13409454 0.37206462 0.010060359
0002c0 04 27 8d be 8e 11 e7 bd 00 85 12 c1 53 94 80 3f
       -0.2756883 -0.11282645 -9.157471 1.0045265
0002d0 12 44 83 3f 13 af 9e 3d a1 ad d5 3e 2c db f1 3d
       1.0255148 0.077482365 0.4173403 0.11809382
0002e0 c1 90 c9 c0 ca c1 e5 3e 2b 51 c8 3d 4f 0f ae bd
       -6.29892 0.44874412 0.097811066 -0.08499014
0002f0 c0 7b bd 3e 85 bd 50 3f 99 71 96 bb 62 2f 8f be
       0.37008476 0.81539184 -0.0045911786 -0.27965838
000300 ef 54 50 c0 f3 17 bc 3f fd 15 20 3f 4d 5e 27 3f
       -3.255184 1.4694809 0.6253355 0.65378267
000310 8a 4e 3a 3f c6 db 2a 3f c9 f2 04 41 2c fe ee 3e
       0.7277609 0.667416 8.309274 0.46678293
000320 94 80 a0 3f 12 01 09 3c fc c5 3c 3f 8c 2b a3 bc
       1.2539239 0.008362072 0.737396 -0.019918226
000330 70 b9 94 bf bf a8 e3 3e 52 75 b8 3f 81 7a 4d 3f
       -1.1619091 0.4446468 1.4410803 0.8026505
000340 18 6d 0c 3f 82 0a 4e 3f 4c 4e e8 bf 56 82 c7 3f
       0.54853964 0.80484784 -1.8148894 1.558665
000350 f3 a2 e9 3f 2b 0b 4a 3f 32 e8 65 3f 84 1d 17 3f
       1.8252853 0.7892329 0.89807427 0.5902941
000360 f8 40 ce c0 dd 6c 6f 3f 1c c8 16 3f 27 19 0a 3d
       -6.4454308 0.9352549 0.5889909 0.033715393
000370 c2 a7 98 3f f9 c0 7d 3f 32 83 39 3f 75 14 2b bf
       1.1926196 0.9912258 0.72465813 -0.6682809
000380 59 45 bc c0 86 83 9a 3f bd ab 16 3e 82 de db 3d
       -5.8834653 1.2071388 0.1471395 0.10735799
000390 0b 37 f8 3e c7 a6 a5 3e ca fa 03 41 30 84 e9 3c
       0.48479494 0.32353804 8.248728 0.028505415
0003a0 1b a8 29 3f 31 c5 35 3c 63 c7 69 3e 1a cb 5e 3c
       0.66272134 0.011094377 0.22829966 0.013598228
0003b0 99 fa 99 bd 2e be 5a 3e 5a 7f 40 3f 42 ad b4 3e
       -0.07518501 0.2136161 0.75194323 0.35288435
0003c0 9a 41 0b 3e ce 12 ec 3e 18 26 05 c1 b0 b5 64 3f
       0.13599244 0.46108097 -8.3218 0.89339733
0003d0 bb a5 a1 3f 20 7b 22 3e 3f de f1 3e bf 3c a5 3e
       1.2628702 0.15867281 0.47239873 0.32272908
0003e0 52 03 c3 c0 7e 6d 28 3f ea 5c 9f 3e 5c f9 0b bd
       -6.0941553 0.6579207 0.31125575 -0.034173355
0003f0 09 95 bc 3e dd f1 38 3f 30 d0 5a 3d 29 85 59 bf
       0.36832455 0.72244054 0.0534212 -0.8496881

conv1.5.bias f4 [8]
000000 12 6f fb c0 29 17 19 c1 bb a6 01 c1 ac 18 86 41
       -7.8573084 -9.568154 -8.103206 16.762047
000010 6f 8f 8b 41 b5 3b 83 41 99 ff 87 41 ed 71 83 41
       17.445036 16.404154 16.999804 16.430628

conv1.7.weight f4 [1, 8]
000000 27 94 8d bf 84 87 6b bf c7 3f 57 bf 2f a8 ad 3f
       -1.1060838 -0.92003655 -0.8408169 1.356695
000010 7e f9 f7 3f 96 00 78 40 69 fc 03 40 7b 42 4e 40
       1.9373014 3.8750358 2.062281 3.2228076
