factor_backend/libs/neuralNetwork/dl.pth (torch, 6543 bytes, 7 tensors)

conv1.0.weight f4 [16, 11]
0	0xbef52656	-0.4788081
1	0xbe18a393	-0.14906149
2	0x3f697c8b	0.9120566
3	0x3ecb9068	0.3975861
4	0xbdc715c1	-0.09720946
5	0x3e153c54	0.14573795
6	0xbfffa36c	-1.9971747
7	0xbfb1be9b	-1.3886293
8	0xbe99104f	-0.29895255
9	0x3dadf378	0.084937036
10	0x40176ad6	2.3658957
11	0xbfc9dff4	-1.577147
12	0xbe183b72	-0.14866427
13	0xbf4e62a7	-0.8061928
14	0x3e08a00a	0.133423
15	0x3e161021	0.1465459
16	0x3f942858	1.1574812
17	0x3f437063	0.76343364
18	0x3f171e3b	0.59030503
19	0x3fa74bb6	1.306998
20	0xbe19a718	-0.15005147
21	0x4019425f	2.394676
22	0xbe3aed4a	-0.18254581
23	0x3d33d2b3	0.04390211
24	0xbee31bf1	-0.44357255
25	0x3f0f9ba5	0.5609687
26	0xbe290143	-0.16504388
27	0x3de48e1d	0.111599185
28	0x3d3572f2	0.044299074
29	0xbf613ffd	-0.87988263
30	0xbd85e9b7	-0.06538718
31	0x3bb34c8d	0.005471772
32	0xbf054966	-0.5206512
33	0x3d7724b8	0.060337752
34	0xbd282180	-0.041047573
35	0x3d92b7b4	0.07163945
36	0x3d19add0	0.037519276
37	0xbdaeab04	-0.085287124
38	0x3e4cd41c	0.20002788
39	0xbdc7c86e	-0.09755026
40	0x3c94c190	0.018158704
41	0xbe8128a2	-0.25226313
42	0xbc3d0d00	-0.011538744
43	0xbe984aed	-0.29744664
44	0xbe1cac8a	-0.15300193
45	0xbe9235d5	-0.28556696
46	0xbd6058c8	-0.05477217
47	0xbe52cdba	-0.20586291
48	0xbe710f97	-0.23541103
49	0x3e2fa616	0.171532
50	0x3e90a9cc	0.28254545
51	0x3e1b652a	0.1517531
52	0xbc8a2ca0	-0.016866982
53	0xbe994354	-0.2993418
54	0xbd9aeab6	-0.07564299
55	0xbea89a4c	-0.3293022
56	0x3ef88a95	0.4854323
57	0x3ff3d130	1.9048214
58	0xbe3f2e00	-0.18669891
59	0x3d16b84b	0.03679685
60	0xbeec4a03	-0.46150216
61	0x3ec1f09f	0.37878892
62	0xbf8dc7a1	-1.1076547
63	0xbe3bf8f4	-0.18356687
64	0x3b359b92	0.0027711135
65	0x3f8e07a5	1.1096083
66	0x3fd74a5a	1.6819565
67	0x3e7843d5	0.24244626
68	0x3f4671a9	0.7751718
69	0x3ec792a0	0.38979053
70	0xbf24a647	-0.6431622
71	0xbfa1f0b5	-1.2651583
72	0xbf5fc271	-0.8740607
73	0xc015a7ff	-2.3383787
74	0xbf71eb86	-0.94500005
75	0x3e15ba0b	0.14621751
76	0x3f0581fd	0.5215147
77	0x3f8cdfea	1.1005833
78	0x3e0231cd	0.1271431
79	0x40155dad	2.3338425
80	0xbed91524	-0.42398942
81	0x3ec1b743	0.3783513
82	0x3f09010f	0.5351724
83	0x3fce146c	1.6099982
84	0x3d81f081	0.063447006
85	0xbc6f1e7b	-0.014594669
86	0x3e13b72e	0.14425346
87	0xc0216cbb	-2.5222614
88	0x3e160830	0.14651561
89	0x3f1ee255	0.62064105
90	0xbf9ae76d	-1.2101876
91	0xbefae46d	-0.490024
92	0x3f2d366e	0.6766118
93	0xbf971acd	-1.1805054
94	0x3fb6efb4	1.4291902
95	0xbfe8336a	-1.814069
96	0x3e5ba3fe	0.21449277
97	0xbd694a1b	-0.056955438
98	0x3ff1aa79	1.8880149
99	0xbe0fe083	-0.14050488
100	0x3e3e060c	0.18556994
101	0x40208633	2.5081909
102	0xbefcdb02	-0.4938584
103	0x3d8aed6e	0.06783567
104	0xbf430edd	-0.76194555
105	0xbfb56e9a	-1.4174378
106	0xc06b522c	-3.6768904
107	0x3efbb4a4	0.49161255
108	0x3ccd88c4	0.025089629
109	0x4013dcab	2.3103435
110	0xc043cb91	-3.0592997
111	0x3e213432	0.15742567
112	0xc049876d	-3.1488907
113	0x3e6f231d	0.23353238
114	0xbdf76b2b	-0.120809875
115	0xbe616c00	-0.22013855
116	0x3ffedcce	1.9911134
117	0xc05f1039	-3.4853652
118	0xbdf086ca	-0.11744459
119	0x3c7f411a	0.015579486
120	0x3f21a073	0.6313545
121	0xc01f2ec2	-2.4872289
122	0x3e8ff513	0.28116664
123	0x400f5582	2.239594
124	0x3db94b9d	0.09047625
125	0xbdc1f506	-0.09470563
126	0xbf8a0503	-1.078278
127	0xbf8760bd	-1.0576397
128	0xc035db23	-2.8415
129	0xbdf0c536	-0.11756365
130	0x3cafb09f	0.021446524
131	0x40666888	3.60013
132	0xbf8b121c	-1.0864902
133	0x3f103ef0	0.56346035
134	0x3f1dae95	0.61594516
135	0xbe906928	-0.28205228
136	0x3f86d353	1.0533241
137	0x3fa4dab0	1.2879238
138	0x3f6a5b0e	0.9154519
139	0x40261d06	2.5955215
140	0x3f8e6572	1.1124709
141	0xbe0e902c	-0.13922185
142	0xbf8a9370	-1.0826244
143	0xbe1c8df9	-0.15288533
144	0xbe42963e	-0.19002625
145	0x3e96b2f2	0.294334
146	0x3de2e510	0.110788465
147	0xbe5170b2	-0.20453146
148	0x3dc1f23c	0.09470031
149	0xbe9456b7	-0.28972408
150	0xbe280a24	-0.16410118
151	0x3e0f15d8	0.13973176
152	0xbe77f9d4	-0.24216396
153	0x3e2c9852	0.1685498
154	0xbf433546	-0.76253164
155	0x3f92d4bf	1.1471175
156	0x407bd071	3.9345973
157	0x3f00e32f	0.50346655
158	0x3f040e66	0.5158447
159	0xbfb7075c	-1.4299121
160	0xbfae2343	-1.3604511
161	0xbfb42a21	-1.4075357
162	0x3e3edf40	0.1863985
163	0x3db59216	0.08865754
164	0xbf724108	-0.9463048
165	0x3ffd63e1	1.9796106
166	0x3f1e5f5d	0.6186426
167	0x3f9f44d5	1.2442881
168	0xbe274edf	-0.1633868
169	0x3daff27c	0.08591172
170	0xbf0ad628	-0.54233027
171	0xbe9e65a6	-0.30936927
172	0xbc2601bb	-0.0101322485
173	0xbe8da836	-0.27667397
174	0x3d4aee03	0.049543392
175	0x3f27a70f	0.65489286

conv1.0.bias f4 [16]
0	0x40a4301d	5.130873
1	0x40a2e7ad	5.0907807
2	0x41139e42	9.226137
3	0xbdd8e70c	-0.10590944
4	0x3e8a285e	0.26983923
5	0x40f5da90	7.68293
6	0x402dfad7	2.718435
7	0x40c32ebe	6.099456
8	0x409e5150	4.947426
9	0x40bd83dd	5.9223466
10	0xbebb8062	-0.36621386
11	0x3f139f2a	0.5766474
12	0x40fc1fb7	7.8788714
13	0xbe253ddb	-0.16136877
14	0x3f3dc175	0.74123317
15	0x410484fd	8.282468

conv1.2.weight f4 [32, 16]
0	0x3db4e4e4	0.0883272
1	0xbe60c9c4	-0.21951967
2	0x3d816f42	0.06320049
3	0xbdafe900	-0.08589363
4	0xbd0f7b80	-0.03502989
5	0x3e146ed5	0.14495404
6	0xbdcb2802	-0.0991974
7	0xbe87058e	-0.26371425
8	0xbd650086	-0.055908702
9	0x3cf64ab0	0.03006491
10	0xbdc4bfa3	-0.09606864
11	0x3e2238bb	0.15841953
12	0xbca79366	-0.020456027
13	0xbd337e08	-0.043821365
14	0xbe0e865b	-0.1391844
15	0xbe3e299f	-0.18570565
16	0xbdee9c9e	-0.11650966
17	0x3f62133c	0.883106
18	0x3e32778d	0.17428418
19	0x3e07cf3e	0.1326265
20	0xbe432ec8	-0.19060814
21	0x3ee781dd	0.45216265
22	0xbf6c99cc	-0.92422175
23	0x3c81d588	0.01584889
24	0xbf079d94	-0.5297482
25	0x3f356e30	0.7087126
26	0x3f8ffd95	1.1249262
27	0x3f0d4b38	0.551929
28	0xbf03d9c8	-0.5150418
29	0xbd1230f8	-0.03569123
30	0x3e4f334f	0.20234416
31	0x3f25cbff	0.647644
32	0x3d74a171	0.059724275
33	0x405f990e	3.4937167
34	0xbfbf9ce0	-1.496975
35	0xbe3fdda4	-0.18736893
36	0x3e031c7e	0.12803838
37	0x3fd84780	1.689682
38	0x3e529422	0.2056432
39	0x3e05d387	0.13068973
40	0xc18925e9	-17.14351
41	0xc0391c2b	-2.8923442
42	0x40474f58	3.1142178
43	0x3f93d981	1.1550752
44	0xbe2cb62d	-0.1686637
45	0xbca7d8f0	-0.020489186
46	0x3eddd6bf	0.433279
47	0xbfb6d145	-1.4282614
48	0x3ea82001	0.32836917
49	0x3fb01ede	1.375942
50	0x3f6f9ccb	0.9359862
51	0x3e77c828	0.24197447
52	0xbe23903a	-0.15972987
53	0x400f7909	2.2417624
54	0x3fe20210	1.765688
55	0xbf82e1a8	-1.0225115
56	0x3fb8757a	1.4410851
57	0xc005c031	-2.0898554
58	0x3ffc753d	1.9723278
59	0x3fd97533	1.6988891
60	0xbfd46a3b	-1.6594919
61	0xbe415b22	-0.1888242
62	0xbebf19f4	-0.37324488
63	0xbdbacaaf	-0.0912069
64	0xbe1a733b	-0.1508302
65	0x3f6be2cc	0.9214294
66	0x3e82b418	0.25528026
67	0x3c85bd70	0.016325682
68	0xbe2950da	-0.16534749
69	0x3e534706	0.20632562
70	0xbf5960fb	-0.84913605
71	0x3d077824	0.03307356
72	0xbf0d889f	-0.5528659
73	0x3f8fa215	1.1221339
74	0x3f538085	0.8261798
75	0x3f0be785	0.54650146
76	0xbf09df86	-0.53856695
77	0x3ccf0450	0.025270611
78	0x3e45487b	0.1926593
79	0x3f08f766	0.535025
80	0x3d19f4fc	0.03758715
81	0x3f96afef	1.1772441
82	0x3fa38e2e	1.2777765
83	0x3d8c5b40	0.06853342
84	0x3e7ffa38	0.24997795
85	0x40228aa2	2.5397115
86	0x3fa0ddf1	1.2567731
87	0xbf697b1e	-0.91203487
88	0x3f472522	0.77791035
89	0xbf3d0b13	-0.7384502
90	0x3ff5d2a8	1.9204912
91	0x4025642f	2.5842397
92	0xbfbf87d5	-1.4963328
93	0xbdf04820	-0.11732507
94	0xbe4834f1	-0.19551446
95	0xbeffa671	-0.49931672
96	0xbdf83edf	-0.12121367
97	0x3f7a3f35	0.97752696
98	0x3e8e8a2a	0.27839786
99	0xbe385854	-0.18002445
100	0xbc90f680	-0.017695665
101	0x3eb13c73	0.34616432
102	0xbf7d4779	-0.98937184
103	0x3d21aaf2	0.039469667
104	0xbed80904	-0.42194378
105	0x3f699e77	0.91257423
106	0x3f707c3b	0.9393956
107	0x3f18d9e4	0.59707475
108	0xbf189a42	-0.5961038
109	0xbd457ce0	-0.048214793
110	0x3e631d75	0.22179206
111	0x3f14b256	0.5808462
112	0xbd689fd1	-0.056793038
113	0x3f5650d5	0.8371709
114	0xbb26ab49	-0.0025431684
115	0x3c690b00	0.014223814
116	0x3d542900	0.051796913
117	0x3f3c3b67	0.7352814
118	0xbf663dcb	-0.8993804
119	0xbce78c5c	-0.02826517
120	0xbf13c763	-0.57726115
121	0x3e208407	0.15675364
122	0x3fa0f255	1.2573954
123	0x3e454f40	0.19268513
124	0xbebea83c	-0.37237728
125	0xbe5f8c70	-0.21830916
126	0x3e77f2c6	0.24213704
127	0x3f3db58a	0.7410513
128	0x3d810fc4	0.06301835
129	0x3fa577fb	1.292724
130	0x3f05c9d0	0.52261066
131	0x3e6c9ee6	0.2310749
132	0xbcac8470	-0.021059245
133	0x3eb3a6e1	0.35088256
134	0xbf413925	-0.7547782
135	0xbcaf6e6f	-0.021414964
136	0xbefe7bd9	-0.49703863
137	0x3fa6e402	1.3038332
138	0x3e801c99	0.25021818
139	0x3fa672d8	1.3003798
140	0xbf1b211b	-0.6059739
141	0xbd9f7408	-0.07785803
142	0x3e2f3219	0.17108954
143	0x3f12ef37	0.5739626
144	0x3faa7856	1.3317974
145	0x3f9927be	1.1965253
146	0xbe0cd2c7	-0.1375228
147	0x3c8f4630	0.017489523
148	0xbdcf5938	-0.10124439
149	0xbee2945f	-0.44253823
150	0x3f716990	0.943017
151	0xbf95dda6	-1.1708267
152	0xbe643a9b	-0.22287981
153	0xbff22b60	-1.8919487
154	0xbf89f1db	-1.0776933
155	0x40254732	2.5824704
156	0xbf5ce220	-0.8628254
157	0xbe69af8a	-0.22820869
158	0xbef3b9e5	-0.47602764
159	0x3f159545	0.5843089
160	0xbdebf063	-0.115204595
161	0x3f5753bd	0.8411215
162	0x3d9971e7	0.07492428
163	0xbdee299c	-0.1162903
164	0xbe6c195e	-0.23056552
165	0x3ebac0af	0.3647513
166	0xbf4baa34	-0.79556584
167	0x3c585d55	0.013205846
168	0xbecc3922	-0.3988734
169	0x3f59adcc	0.8503082
170	0x3f8e2adf	1.1106833
171	0x3f743b52	0.95403016
172	0xbed42bce	-0.4143967
173	0xbe77d39a	-0.24201813
174	0x3e3ab57a	0.1823329
175	0x3f06c628	0.5264611
176	0xbdc4d8fe	-0.096117005
177	0x3f80d346	1.0064476
178	0x3e6226d3	0.22085123
179	0x3e390a5e	0.18070361
180	0x3dc2077c	0.09474084
181	0x3f073e77	0.5282969
182	0xbf73a8b3	-0.9517929
183	0x3cedeb7e	0.029042955
184	0xbeddd7e0	-0.43328762
185	0x3f3e3b8f	0.7430963
186	0x3f86ac6e	1.0521371
187	0x3f2dae47	0.6784405
188	0xbf03c465	-0.5147155
189	0x3e374af6	0.17899689
190	0x3e2ef107	0.17084132
191	0x3f2450d5	0.6418584
192	0x3d2d81a2	0.042359956
193	0x3f124802	0.57141125
194	0xbec1de29	-0.37864807
195	0x3c8ec690	0.017428666
196	0xbe20e56a	-0.15712515
197	0x3f3ccda5	0.7375129
198	0xbf84008e	-1.0312669
199	0xbe055270	-0.13019729
200	0xbf44325f	-0.7663936
201	0xbf5f996b	-0.8734347
202	0x3f958a14	1.1682763
203	0xbe805366	-0.25063628
204	0xbdb818d5	-0.08989111
205	0x3e32f02a	0.17474428
206	0x3eaad8da	0.3336857
207	0x3f54586f	0.8294744
208	0xbe31b7b3	-0.17355232
209	0x3f64a6d0	0.89317036
210	0x3e337796	0.17526087
211	0xbc881830	-0.016613096
212	0xbe4f8ed2	-0.20269325
213	0x3e1e8526	0.1548048
214	0xbf64d5d8	-0.893888
215	0x3ccdf35f	0.025140462
216	0xbf09125b	-0.53543633
217	0x3f963a80	1.1736603
218	0x3f7e1a4f	0.99258894
219	0x3f50accb	0.8151366
220	0xbf0445f7	-0.5166926
221	0x3e7e0454	0.24806339
222	0x3e72b127	0.23700391
223	0x3f1409ac	0.5782726
224	0xbdb56e58	-0.08858937
225	0x3f751674	0.95737386
226	0x3e110a30	0.14164042
227	0xbe12fdec	-0.14354676
228	0xbe1e8c22	-0.15483144
229	0x3f30573e	0.6888312
230	0xbf6134bd	-0.879711
231	0x3a2504ea	0.0006294983
232	0xbef2d4ee	-0.47428077
233	0x3eacaf1b	0.33727345
234	0x3f8233ae	1.0172021
235	0x3e825c04	0.25460827
236	0xbef4e1ef	-0.47828624
237	0xbe2516a4	-0.16121918
238	0x3e6df302	0.23237231
239	0x3f22fca0	0.63666725
240	0xbd5c5820	-0.05379498
241	0x3faf9896	1.371844
242	0xbf611d51	-0.8793536
243	0xbd309c90	-0.04311806
244	0xbde77fb4	-0.11303654
245	0x3e0a5b38	0.1351136
246	0xbf08a733	-0.53380126
247	0xbe2b642a	-0.16737428
248	0xbf751817	-0.95739883
249	0x3e813690	0.2523694
250	0x3fc2675d	1.5187794
251	0x3eb65ca4	0.35617554
252	0xbf4d3870	-0.8016424
253	0x3d9da464	0.07697371
254	0x3f2e8182	0.68166363
255	0x3e111ac6	0.1417037

conv1.2.bias f4 [32]
0	0xbdfec19c	-0.12439272
1	0x409db518	4.928356
2	0xc092983b	-4.581083
3	0xc03a4136	-2.9102302
4	0x40986082	4.7617807
5	0xc000fccc	-2.0154295
6	0x4092674b	4.575109
7	0x40acae11	5.3962483
8	0x40973f9c	4.726515
9	0x3e81a19f	0.2531862
10	0x409fad66	4.989917
11	0x409461fc	4.636961
12	0x40c3fece	6.124854
13	0x409a7f9f	4.8280787
14	0x409e1419	4.9399533
15	0x403f331c	2.9874945
16	0x409fcfcb	4.9941154
17	0x40a47157	5.1388354
18	0x409a5f01	4.824097
19	0xc0c0adb4	-6.021204
20	0xbf66d654	-0.9017079
21	0x40aa0c83	5.3140273
22	0x409e0be7	4.938953
23	0x409cf1f4	4.9045353
24	0x4040664f	3.0062444
25	0x40b6f35c	5.717207
26	0x407a9edb	3.9159458
27	0x40a28996	5.079295
28	0x40ae1d89	5.4411054
29	0x4090ce62	4.525193
30	0x40acc27d	5.3987412
31	0x409fa3b5	4.988734

conv1.5.weight f4 [8, 32]
0	0x3dc720ee	0.09723078
1	0x3e711196	0.23541865
2	0xc035113d	-2.8291771
3	0xc0bba715	-5.8641458
4	0x3efb095b	0.49030575
5	0xc0b68ead	-5.7049165
6	0x3e96e56d	0.29471913
7	0x3df43427	0.1192401
8	0xbfe3b9d4	-1.7791085
9	0xbeb4c391	-0.35305455
10	0x3e732759	0.23745479
11	0x3e4c1ed7	0.1993364
12	0x3dce8ca6	0.1008542
13	0x3f09be2b	0.538058
14	0x3e0e42d1	0.13892676
15	0xc04f0284	-3.2345285
16	0xc14d53bc	-12.832943
17	0xc15cefee	-13.808577
18	0x3dbb2b46	0.09139113
19	0xbfbc0898	-1.4690123
20	0xc08a44e8	-4.3209114
21	0x3df5e113	0.1200582
22	0xc073efc2	-3.8115087
23	0x3d493d0f	0.049130496
24	0x4002caed	2.0436356
25	0x40c06a1a	6.012952
26	0x3f39764c	0.7244613
27	0x3eed30a4	0.46326172
28	0x3dbbaf1a	0.09164257
29	0xc062c096	-3.5430045
30	0x3ea452e7	0.320945
31	0xc0b9f181	-5.8107305
32	0x3e26cc63	0.16288905
33	0xbdbfec8f	-0.09371292
34	0xc1c789f7	-24.942366
35	0xc1be4468	-23.783401
36	0x3eb9242b	0.36160406
37	0xc1bcd9c2	-23.606327
38	0xbd85a956	-0.06526439
39	0x3bc6b183	0.0060636415
40	0x3e12cfea	0.14337125
41	0xc1d41814	-26.511757
42	0x3e649c6c	0.22325295
43	0x3d1b9700	0.0379858
44	0xbe382775	-0.17983802
45	0x3e7714ab	0.24128978
46	0xbe4d7f55	-0.20068105
47	0x404c316f	3.1905172
48	0xbd8ea813	-0.06965651
49	0xbb6b2e74	-0.0035885843
50	0x3e0ad424	0.13557488
51	0xc1f5e9d8	-30.739182
52	0xc1d6d069	-26.851763
53	0xbe3071a3	-0.17230849
54	0x3e624443	0.22096352
55	0xbd58f2a3	-0.05296577
56	0x3fa55562	1.2916682
57	0x3fc162b9	1.5108253
58	0x3e725549	0.23665346
59	0x3ea4a9a7	0.32160684
60	0x3de4754d	0.11155186
61	0x3e3bc242	0.18335822
62	0x3e53ed55	0.20696004
63	0x3e0ef2b7	0.13959776
64	0xbd0d1d46	-0.034451745
65	0x3ddccf82	0.107817665
66	0xc1db4154	-27.406898
67	0xc1b44873	-22.535376
68	0x3e611527	0.21980725
69	0xc1ac9400	-21.572266
70	0x3e87c97d	0.2652091
71	0xbea2f4cd	-0.31827393
72	0x3deda20d	0.11603174
73	0xc1cec431	-25.845797
74	0xbd0978cd	-0.03356247
75	0x3d230681	0.039801124
76	0xbeb33873	-0.35004005
77	0x3e3d3163	0.18475871
78	0xbd1d1edd	-0.03835951
79	0x405cb417	3.4484918
80	0x3e34bb7c	0.17649645
81	0x3e0235aa	0.12715784
82	0x3e01f8e7	0.12692605
83	0xc1dc144e	-27.509914
84	0xc1bfaab4	-23.958351
85	0xbd1106d7	-0.035406914
86	0xbcb5c500	-0.022188663
87	0x3eb9e95a	0.36310846
88	0x3fe2e7fd	1.7727047
89	0x400ba3c7	2.1818712
90	0x3e96f1d1	0.29481366
91	0xbd7e421a	-0.062074758
92	0xbea81788	-0.32830453
93	0x3d9deae7	0.0771082
94	0x3c8e40fb	0.01736497
95	0xbd3a8447	-0.045536306
96	0xbdd6c4e8	-0.10486776
97	0x3f33df1c	0.7026231
98	0xc10eeee9	-8.933328
99	0xbf64709a	-0.89234316
100	0x3f3a092d	0.7267025
101	0xbee43954	-0.44574988
102	0x3f1c924e	0.61160743
103	0x3f1b8ca5	0.6076148
104	0x3e86af2b	0.26305518
105	0xc0b69563	-5.7057357
106	0x3ef2a5c2	0.47392088
107	0x3f26dcd7	0.65180725
108	0x3f52e922	0.8238698
109	0x3f3977e0	0.7244854
110	0x3f33dd47	0.7025952
111	0x3fb8e014	1.4443383
112	0x3e417ebe	0.18896005
113	0x3df05c92	0.117364064
114	0x3ee1131d	0.43959895
115	0x3e781879	0.24228086
116	0xbef5527d	-0.47914496
117	0x3eeddc4b	0.46457133
118	0x3ea040e8	0.3129952
119	0x3ec66615	0.38749757
120	0x3fa557a1	1.2917367
121	0x4061d047	3.5283372
122	0x3f850aae	1.0393884
123	0x3f35d92c	0.71034503
124	0x3f048117	0.51759475
125	0x3e7a8f40	0.24468708
126	0x3ef3466c	0.47514665
127	0x3e433cc6	0.19066152
128	0xbe1355a3	-0.14388137
129	0x3f6177d4	0.8807347
130	0xc03c9079	-2.946318
131	0x3ee43299	0.44569853
132	0x3f78ac73	0.97138137
133	0x3f0edbc2	0.55804074
134	0x3f4201c1	0.75783926
135	0x3f72a2d3	0.947797
136	0x3ef9eb11	0.48812154
137	0xbfab2dc2	-1.3373339
138	0x3f4f1cec	0.80903506
139	0x3f116373	0.5679237
140	0x3f69f98a	0.9139639
141	0x3f4f7558	0.8103843
142	0x3f633394	0.88750577
143	0x3fdd0c60	1.7269402
144	0x3ea99085	0.33118072
145	0x3eef99d2	0.46797043
146	0x3f47271a	0.7779404
147	0x3f96233c	1.1729503
148	0x3eba858f	0.36430022
149	0x3f69061f	0.91024965
150	0x3ec2409d	0.3793992
151	0x3f5b8443	0.8574869
152	0x3fc87edb	1.5663713
153	0x4061a88c	3.5259123
154	0x3f688735	0.9083131
155	0x3f3b93d2	0.7327243
156	0x3f42bf8e	0.7607354
157	0x3f20571a	0.62632906
158	0x3f245d27	0.6420464
159	0x3f093cf0	0.5360861
160	0xbdc9d8fa	-0.09855838
161	0x3e743e0c	0.23851794
162	0xc0220645	-2.5316327
163	0xc0ea6da3	-7.3258834
164	0x3ec51590	0.38493013
165	0xc0c56e5a	-6.1697206
166	0x3ea7c566	0.3276779
167	0x3e029fa3	0.12756209
168	0xbfecf3a0	-1.8511848
169	0xbf01650b	-0.50544804
170	0x3e965874	0.2936436
171	0x3e8336eb	0.25627837
172	0x3dca8ee1	0.09890533
173	0x3efe9f53	0.4973093
174	0x3e165fdd	0.14685006
175	0xc055dcd7	-3.341604
176	0xc15a7b2a	-13.655069
177	0xc16bf316	-14.746847
178	0x3e1e231a	0.15443078
179	0xbfc860fb	-1.5654596
180	0xc09d2815	-4.911143
181	0x3e1822bf	0.14857005
182	0xc092ae3a	-4.583768
183	0x3db9114c	0.09036502
184	0x3fc96781	1.5734712
185	0x40c91e80	6.284973
186	0x3f1f2251	0.6216174
187	0x3ef41b01	0.47676852
188	0x3de4b511	0.11167348
189	0xc09d198e	-4.9093695
190	0x3eb5cde8	0.35508657
191	0xc0eb33ef	-7.3500896
192	0xbd7cf2bb	-0.061754923
193	0x3e24596f	0.16049741
194	0x4078104c	3.8759947
195	0xbeb10729	-0.34575775
196	0x3e007f1d	0.1254849
197	0xbf121182	-0.57057965
198	0x3e538b52	0.20658615
199	0x3e169e1e	0.14708754
200	0x3e071321	0.13190891
201	0xc1fc2117	-31.516157
202	0x3e2e952c	0.17049092
203	0x3e19f264	0.15033871
204	0x3e4e46f8	0.2014426
205	0x3d93202b	0.0718387
206	0x3e590056	0.21191534
207	0x3eb4d2cf	0.35317084
208	0x3e44a946	0.19205198
209	0x3e445249	0.19172014
210	0x3e51fd1f	0.20506714
211	0xc06cd9e4	-3.700799
212	0xbf0da9f7	-0.5533747
213	0x3e62730c	0.221142
214	0x3e4ffe24	0.2031179
215	0x3e550814	0.20803863
216	0x3e932681	0.28740314
217	0x40393f76	2.8944983
218	0x3e196a1e	0.14981887
219	0x3e1406ca	0.14455715
220	0x3e0b077f	0.13577078
221	0x3e66baa6	0.22532138
222	0x3dd18e92	0.10232271
223	0x3e7ab0b3	0.24481468
224	0xbcdce476	-0.026964407
225	0x3f4e35c8	0.80550814
226	0xc03f929f	-2.993324
227	0x3ea6ce76	0.32579392
228	0x3f81f374	1.0152421
229	0x3ec1c1e6	0.37843245
230	0x3f4f2c8e	0.8092736
231	0x3f52874d	0.822377
232	0x3f080153	0.5312702
233	0xbfe69ae8	-1.8016024
234	0x3f317e9a	0.69333804
235	0x3f4c22b5	0.7974046
236	0x3f75a4e7	0.95954746
237	0x3f217681	0.6307145
238	0x3f535ee8	0.8256669
239	0x3fe03e8d	1.7519089
240	0x3e3400d8	0.17578447
241	0x3e997f1e	0.29979795
242	0x3f225d40	0.6342354
243	0x3f735510	0.9505167
244	0x3ef3718a	0.4754756
245	0x3f6d59ab	0.9271495
246	0x3f18ca14	0.59683347
247	0x3f356a90	0.70865726
248	0x3fdf23e3	1.7432827
249	0x40692854	3.6430864
250	0x3f849a35	1.035956
251	0x3f66a8c9	0.90101296
252	0x3f226bda	0.6344582
253	0x3ee96887	0.4558756
254	0x3f4fe498	0.8120818
255	0x3ef1cff1	0.4722896

conv1.5.bias f4 [8]
0	0xc1799b45	-15.600408
1	0x428eaa0c	71.33212
2	0x428dbeb1	70.872444
3	0x4292e92b	73.45541
4	0x42925eca	73.185135
5	0xc16b0302	-14.688234
6	0x42936743	73.70168
7	0x42924d85	73.151405

conv1.7.weight f4 [1, 8]
0	0xc19b16f8	-19.386215
1	0x4201d244	32.455338
2	0x4206e6ce	33.725395
3	0x41024c0b	8.143565
4	0x40e06cda	7.0132875
5	0xc1a105af	-20.127775
6	0x4194de33	18.608496
7	0x40e3f34a	7.1234484
